models/PINN_Pendulum_w0_4.pth (torch, 12228 bytes, 7 tensors)

fcs.0.weight f4 [32, 1]
00000000: 5244 e7bf e44a 5bbe 7c49 c8bf ff61 cb3f
00000010: b678 93c0 013b 0440 93a7 19c0 79fc efbf
00000020: 5528 25c0 6f88 0040 4db8 99bf c9c4 c73e
00000030: fae2 10c0 5f9c b5bf 0719 88bf 3d81 e8bf
00000040: b75b d2bf 6f74 e83f edc5 a6bf 79d5 763f
00000050: 3df1 e43f 3611 01bc b58b b43f 7663 ff3f
00000060: f42a 40bf 0318 0abd df47 c7bf f6fa 0c40
00000070: e656 1340 b058 b9bf cd20 f33f e4e7 1740
-1.8067725 -0.21415287 -1.5647426 1.5889281 -4.608485 2.0661013 -2.400853 -1.8748924
-2.5805867 2.0083272 -1.2009369 0.39017323 -2.2638535 -1.4188346 -1.0632638 -1.816444
-1.6434239 1.8160533 -1.3029152 0.96419483 1.788612 -0.007877639 1.4105135 1.9952228
-0.7506554 -0.033714306 -1.5568808 2.2028174 2.3021789 -1.448019 1.8994385 2.3735285

fcs.0.bias f4 [32]
00000000: 91b3 9a3f df5e d83e e00f 6e3f 3f6d 93be
00000010: ad28 61bd e2a6 8cbe 138c e3be 4a7e 133e
00000020: eb58 63bc 57bd b5bf c354 b23e 0bfc 2f3f
00000030: 435b af3c 596c 6d3e 3a9a 1dbe 1450 bc3d
00000040: 8c64 863f c3c8 9a3e 60d0 093f 20cb 813e
00000050: b7b1 d93d 37ef 8a3e 9548 debe ff39 b3bf
00000060: 458c d6be 3c76 513f 8726 073e 6b49 9dbf
00000070: c82f e7bc 1c42 593f 1b86 b4bf 7d17 eabf
1.2086049 0.4225988 0.92992973 -0.28794286 -0.054970432 -0.2747107 -0.44442806 0.14403644
-0.01387618 -1.4198407 0.34830293 0.6874396 0.021405822 0.23185863 -0.15390864 0.09194961
1.0499434 0.30231294 0.5383358 0.25350285 0.106295995 0.2713563 -0.4341475 -1.4002074
-0.41903892 0.81821036 0.13198291 -1.228803 -0.028221026 0.848665 -1.4103426 -1.8288418

fch.0.0.weight f4 [32, 32]
00000000: fbfb b5bd 289a 1dbd ef86 d7bc 42d2 813c
00000010: 8cfe b5be 790e 1f3e 4a41 223e 06d9 8c3d
00000020: ef34 1ebe d5c6 05be 7a7e 9d3d ea97 18bd
00000030: 2898 df3c 40fc 3fbe a93e 893b 9b11 f23d
00000040: 00f3 a23d 839b 3b3c f62d 233d 4af4 d8bc
00000050: 132c 9fbd 9712 cbbd 023a a1bd 62ae 223e
00000060: 705a f73d fce5 813c 5390 22be 4833 2a3e
00000070: 1947 c53d 5845 0f3e 5574 9bbd 69a6 103d
00000080: 4206 a63d a29e 253e 0a4d c03d 7865 c23b
00000090: 2396 c73e 4831 27be 98ba 5c3c 690a a8bd
000000a0: 76e4 f6bc 7ec4 773d 59e1 dabd 4470 603e
000000b0: f61b 083e bf6e 5ebd cf96 d83c 82c1 02be
000000c0: 60f9 a93b d8df 50bc 7baa 7dbd 5db3 953d
000000d0: 5401 06be 2b6c 783d caa4 933d f7a5 943e
000000e0: cda2 d1bd ec7c f63d 58e8 0f3e 247a 7e3d
000000f0: 8990 1b3e 45e3 5cbe ce31 303e 7484 293e
00000100: 0372 f53d 1251 ed3d 20aa dc3c 72e4 3b3e
00000110: baa5 27be 8b4d a5bd f861 91bd 39ff 2fbe
00000120: b09a a83c 56c7 85bd a3e8 3fbb 1fda a1bd
00000130: 8ab2 85bd 11c3 a9bd 0581 423d 95d9 ff3d
00000140: f999 dc3d 5559 3dbd 984f 47bd d1b5 193c
00000150: 38ba bdbd 9ad0 19be 20ab edbc 03c4 08be
00000160: 9ff6 b63c deb7 c03d 4bdd f73c 335b ac3d
00000170: af55 5ebd 12ef d23d 7e97 8abe 88f2 f5bc
00000180: dbfb 293e 3328 643e 4fed efbb a7d8 fe3d
00000190: b017 953e 1c8b 263e 54ce 473c 83d5 203e
000001a0: 0b93 f83d 1515 853c 4d69 2d3c 8a5b c6bd
000001b0: 3bb2 bf39 9fba 313d d1a5 f7bd 10bc 553d
000001c0: 77b5 77bd a8ac 41bd d9f4 8a3e 1ff4 373d
000001d0: 899d 92bb 623f 393d 4711 f9bd af66 6ebe
000001e0: ce92 27be b9d9 54bc 7d15 9fbd 0bd9 743c
000001f0: 47f9 f53d 0730 c3bd cd76 76be 18a7 8bbe
00000200: 4ca7 353d ecd4 103e abd6 4dbe 903e 30bd
00000210: 6605 893b fc3d dabd 108a 123e c3f0 fc3c
00000220: bc93 71bd 3083 353d ff7a 93bc d939 34bd
00000230: 3702 11be 730a 93bc b890 20bd 7e6c 933d
00000240: 4bea 8ebd 35da f83d e549 cabd 4a53 4d3c
00000250: 97a8 ab3d a3e8 c8bd d5c8 c6bc 3257 10bd
00000260: 3ec4 883d 9768 aebd bd94 36bb 10bf 79bb
00000270: 8142 07be e386 23be cc1b 043e 378f 003c
00000280: 4a69 bf3d 0dbd 04be 67b9 20be 6ded c7bd
00000290: 322f 653e 4580 c3bd df4b 60bd 2054 a4bb
000002a0: c6ac 22be d01e 663d 0921 84bd dc0b 92bd
000002b0: 3c54 8b3d b3b7 2ebc e5c1 90be a57d 223e
000002c0: 015f 543d 4cca 97bb 0213 40be b967 cf3d
000002d0: d5a9 2f3e 1f6c 4d3e 90e8 29be 49ba 7ebd
000002e0: a9c3 a43d c64e 083e 393e 013e 85e4 cdbd
000002f0: 6f90 0d3e 3d6c 41be 081d 513d 19d0 1e3d
00000300: d1f2 3e3f 6ec7 c6bd b3b4 c03e 8930 b8be
00000310: bc83 253f 64c9 88bf b9b5 fc3d cd8e 733f
00000320: 8ccb 003f cfa7 95be b868 f63d bf59 c0bc
00000330: eea3 5b3f 3c8a 883e 468b 703d 4bb9 823f
00000340: d21f dd3e 755a aabe 325c 7c3e e036 f7be
00000350: c504 0fbf 87b5 cdbd 531b aebf 9eb1 08bf
00000360: 68fd 963e 933a 1ebe f683 5f3f 5b71 d5be
00000370: d7df 01bf fc0c 523f 8224 7dbe 1271 b9be
00000380: cd06 403d c800 89bd 25c0 3a3e 1cbd a0be
00000390: 6541 df3e 8020 a4be cecb 273d d39d 9e3e
000003a0: e06b 093e fb39 c5bd 5f99 a13e 5c88 5d3d
000003b0: 4aca 2c3e f1b0 933e d782 653e 4db3 923e
000003c0: 8320 943c d8e1 85bc 7ab4 cf3d be06 53be
000003d0: 4a57 38be c0ae 913d 2d32 9ebe d13b 253c
000003e0: db81 8cbd 27e5 2d3e 1987 283e f694 13bd
000003f0: ce33 90be f146 35bc 73b2 413d c337 f1bd
-0.08885952 -0.038477093 -0.026309459 0.015847329 -0.35545766 0.15532865 0.15845218 0.068773314
-0.1544988 -0.1306413 0.07690139 -0.03725425 0.027294233 -0.1874857 0.004188378 0.11819764
0.07956505 0.011450651 0.039838754 -0.026483674 -0.07772078 -0.09915655 -0.07872392 0.15886834
0.120777965 0.015856735 -0.15875368 0.16621125 0.096327014 0.13991296 -0.07590548 0.03531495
0.08106662 0.16173795 0.09389694 0.005932506 0.38981733 -0.16327393 0.013472222 -0.082051106
-0.030138236 0.060490124 -0.10687513 0.21917826 0.13291916 -0.054304834 0.026439099 -0.1276913
0.0051871985 -0.012748681 -0.06193016 0.073096015 -0.13086444 0.060650032 0.072091654 0.2903287
-0.1023613 0.12035546 0.14053476 0.0621282 0.15191855 -0.21571071 0.17206499 0.16554433
0.11984637 0.115877286 0.02693659 0.18348864 -0.16371813 -0.08071431 -0.07098764 -0.17187203
0.020581573 -0.06532161 -0.002928295 -0.079029314 -0.06528194 -0.08289159 0.047486324 0.12492672
0.107715555 -0.04622777 -0.04865989 0.009381727 -0.09264034 -0.15020981 -0.029012263 -0.13356023
0.022334395 0.0941007 0.030256888 0.08415832 -0.054280933 0.10299505 -0.27068704 -0.030022874
0.16599981 0.2228096 -0.0073219906 0.12443667 0.29119635 0.16264004 0.012195189 0.15706448
0.12137421 0.016245404 0.010584188 -0.096854284 0.0003656315 0.043390866 -0.12092174 0.052181304
-0.060475793 -0.0472838 0.2713993 0.044910546 -0.004474346 0.045226462 -0.121614985 -0.23281358
-0.16364595 -0.012991362 -0.077677704 0.014944325 0.120104365 -0.09530645 -0.24068756 -0.2727592
0.044349 0.14143723 -0.2010142 -0.043028414 0.0041815517 -0.10656354 0.14310479 0.030876523
-0.05897878 0.044314563 -0.018002985 -0.04400048 -0.14161001 -0.017949319 -0.039200515 0.071984276
-0.069782816 0.12150995 -0.098773755 0.012532065 0.08381765 -0.09809997 -0.024265686 -0.035239406
0.06678055 -0.08516043 -0.002785965 -0.0038108267 -0.13208963 -0.15969424 0.12901229 0.007846645
0.09346254 -0.12962742 -0.15695725 -0.09762082 0.22381285 -0.0954595 -0.054759856 -0.0050149113
-0.1588622 0.05618173 -0.064516135 -0.07131168 0.06803176 -0.0106639145 -0.2827293 0.15868242
0.051848415 -0.00463227 -0.18757251 0.101272054 0.1715463 0.20060776 -0.16592622 -0.062189374
0.08045132 0.133113 0.12621392 -0.10053352 0.13824628 -0.18888946 0.051053077 0.038772676
0.7458926 -0.09706007 0.37637863 -0.3597453 0.64654136 -1.068646 0.12339348 0.9513977
0.5031059 -0.2922959 0.12031692 -0.023480294 0.8579701 0.26667964 0.05872657 1.0212797
0.4318834 -0.33272138 0.24644545 -0.48284054 -0.5586665 -0.10044389 -1.3602089 -0.5339602
0.2949021 -0.15452032 0.8731073 -0.41688046 -0.5073218 0.8205106 -0.24720958 -0.36219078
0.046881486 -0.06689602 0.1823736 -0.3139428 0.4360458 -0.32056046 0.040965848 0.30979785
0.13420057 -0.096301995 0.31562325 0.05408512 0.16874042 0.28845933 0.22413193 0.2865242
0.018081909 -0.016343042 0.10141845 -0.2060804 -0.18002048 0.07113409 -0.30897656 0.010085062
-0.068607055 0.16981946 0.16457786 -0.036030732 -0.28164524 -0.011064277 0.047289323 -0.11778214

fch.0.0.bias f4 [32]
00000000: 7246 3ebe 0631 303e ddba 08be 6f76 4c3c
00000010: 410b c73d f829 b23d 23aa 203e 3136 edbc
00000020: 5452 cf3d 451f c73c dfa6 483e 1e42 63bd
00000030: ee6a d13b a912 603e 9cf8 68be 44be 0c3e
00000040: 2ce2 37be c75a 05be 1316 a63d 93ac 123e
00000050: 01b8 22be 2443 993b 30b2 1dbe 8e6f 26be
00000060: 1961 573c 1aa0 b43d 0eb4 323e b2fb 80bc
00000070: 8d0d e83d d6fd 453e feec 013e 577b e3bd
-0.1858156 0.17206201 -0.13352533 0.012479409 0.097189434 0.08699411 0.15689902 -0.028956505
0.10123125 0.024306903 0.19594906 -0.055482976 0.006390921 0.21882118 -0.22751087 0.13744456
-0.17957371 -0.1302291 0.08109679 0.14323644 -0.15890504 0.0046771932 -0.15400004 -0.16253492
0.0131457085 0.088195994 0.17451498 -0.015745018 0.113307096 0.19335112 0.12688062 -0.111075096

fch.1.0.weight f4 [32, 32]
00000000: 1452 9e3d 10ba 613e 7e84 06be 2bd0 23be
00000010: 3923 103e 9de9 953c c390 b33e f3a7 2dbe
00000020: 97d5 8fbe 191a 9a3e 3d34 f7be 50e5 413e
00000030: edf1 823e 86bf fdbd 093a e53d 6d4d 9b3d
00000040: 6318 ab3e 7c4b 19be e940 673e 4af6 cdbe
00000050: 3ad7 d9bd 7a8a 623e 9ac1 18be 1105 88be
00000060: e320 893e 1c3c 0dbd ea48 91be 4f8e 3c3d
00000070: 356a 1f3e 6559 15bf c8be f7bd 6b93 5abe
00000080: e834 953d 9c40 a7bd 8008 ae3d e155 013e
00000090: 6252 12be d724 bcbb 1517 4d3e 5ef6 e8bd
000000a0: c6b8 f1bd 58f4 763e ad18 b23c 359e 063d
000000b0: bb73 d43d 864a 85bd e88b ee3d 1497 f8bc
000000c0: 6a2c 223e ee7b 983d 5c0d adbd 83fe 84be
000000d0: 267e 5c3b a2fe 413e 2d98 0dbe f7bc 463d
000000e0: aefa 653e 60bd dd3c ace9 96bd f5a6 9c3d
000000f0: beb4 d0bd 71cd 553d fdc0 0abd 6059 34bd
00000100: 3800 31be 88eb 193d 1715 dbbd 6c28 913e
00000110: 75fc 403d 634d 80bd 4cd4 213e 7492 aa3c
00000120: 2ef2 24bc b4ba 983d 4dee e53d 712e e43d
00000130: c9ea 77bd 075b bf3d 564d b8bd d071 b83d
00000140: adcb 8b3e da5e 123e c0d9 6abd 5d03 80be
00000150: 9e1f 8e3d 433b d63d 3b88 1cbe 8e4e 1cbe
00000160: 3eb3 a03e 58bf 22be 478c ff3c 9f0b b23b
00000170: b8ec 1abe 5ddb 42bd 7eed 3cbe 1c02 99be
00000180: 016c 893d 6b10 c23d 236a 333d 61c8 09be
00000190: b0f4 983d 661f 9a3d 1ba1 27be a825 693c
000001a0: d767 4e3e d3c0 98ba 1b0a e7bc d7b9 1ebd
000001b0: 9b91 25be a8f6 9dbc 5087 2c3e f7f2 adbc
000001c0: 803f 10be e82d e7bd 2823 2dbe 662d 243e
000001d0: af89 e13c 8000 693d 74b2 4b3c c9ad f13d
000001e0: 1e0c 65be 18a1 25be e072 fbbd 7347 343e
000001f0: 22cf 0abe 4e99 0cbd 39bd afbb 1e05 84bd
00000200: c05d a0bd ad05 c4bd 188b d9bd 39d3 a43d
00000210: 92f2 48be 3726 b9bd 4226 003e f90f 62bd
00000220: ce48 0f3e 2006 3a3d 5ad3 033e 47b9 ca3d
00000230: 90e6 c4bd 78e1 bebd 612b 08bd 58ee 2d3c
00000240: 1c97 6f3e 51d2 7e3b f2a9 3fbd b830 813d
00000250: 5f89 0cbe a5eb 963c 5ba8 c6bc 761b 26bd
00000260: 69bc 20be 081e 943d 6ac9 633d 65fb 3cbd
00000270: 53af 973d 7640 c03d 8412 00be b1e5 9d3d
00000280: 1b0c ddbd b8dd febc 4e97 063a a7af a03e
00000290: 2376 513e c0d2 e43d 440a 9bbe 22b0 d43c
000002a0: 031b a33e d51a d2be abe1 2abe 7051 2c3d
000002b0: 2569 23be 7492 823c 0914 b8be 29ea 653e
000002c0: 5a6d b6be 8a40 c23d 1f25 3dbd 16c4 e93d
000002d0: 0c25 07be 8cc3 c0bd 13e1 be3c 8eb8 9ebc
000002e0: e4e8 e5bd ad8e 653c 9f50 443e af50 023e
000002f0: dd89 a1be fe3e 12bd b9db 6c3c fc79 cf3d
00000300: 74eb 93bd bbf5 60be e5c8 3a3e ddcf 633d
00000310: f0b6 b73d e6ab 0abe e1e5 83be ee94 cf3d
00000320: 1a34 453e cbae bc3d eb3f 683e ff61 3dbe
00000330: e80a b3bc c203 52be ce00 173e 12a1 f6bc
00000340: 7482 7abe 8337 003e 8b13 72bd 9a10 913e
00000350: 81e6 cdbd f8dd a8be e392 063e e135 78bd
00000360: 6037 11bd f114 23bd 5e3b 3e3e 4a9d 13be
00000370: 6c61 05be 5395 c53d 0e0a 783d c965 6d3d
00000380: 531d 28bf 5020 063f 83f9 093c 7778 bd3e
00000390: 5d2a 26be 050f a43e 3c3b 693e 99ec 333f
000003a0: d5c1 863e d2b0 15be 48b4 ae3d 82a1 543f
000003b0: 0b67 893d ca63 82bf af4a dfbe 039e 9f3e
000003c0: ef32 debe d27f a5be 12b4 62bf d0c8 933d
000003d0: 7e70 00bf 9253 e9bc 246a 99be f8ba 04be
000003e0: 12d4 fa3c 343a 45bf 9026 4b3e 91fd 4abf
000003f0: 546d c23d 5573 68bd 45a8 183f a105 613f
0.07730499 0.22043633 -0.1313648 -0.15997379 0.14075936 0.018299872 0.35071382 -0.16958599
-0.28092644 0.30098036 -0.48282042 0.18935132 0.255752 -0.12390046 0.1119271 0.07583127
0.33417043 -0.14970201 0.22583355 -0.40226966 -0.10636754 0.22123137 -0.14917603 -0.26566365
0.26782903 -0.034481153 -0.28375942 0.046034154 0.15567859 -0.5833953 -0.120969355 -0.21345298
0.07285482 -0.0816662 0.08497715 0.12630416 -0.14289239 -0.0057416963 0.20028336 -0.11375116
-0.11802821 0.24116647 0.021740282 0.03286572 0.10373636 -0.06508355 0.11647779 -0.030345477
0.15837255 0.07445513 -0.08449814 -0.25975427 0.0033644526 0.18944791 -0.13827582 0.048520055
0.22458908 0.02706784 -0.07368788 0.07649032 -0.10190724 0.052197877 -0.033875454 -0.044030547
-0.1728524 0.037578136 -0.10697382 0.28351152 0.04711576 -0.0626476 0.15803641 0.020821787
-0.010067506 0.07457486 0.11227093 0.111416705 -0.060526643 0.09343534 -0.08999126 0.09006083
0.2730383 0.14293995 -0.05733657 -0.25002566 0.06939624 0.10460522 -0.15286343 -0.15264341
0.3138675 -0.15893304 0.03119482 0.0054335142 -0.15129364 -0.047572482 -0.18449971 -0.29884422
0.06710053 0.09475788 0.04380239 -0.13455345 0.074685454 0.0752552 -0.1637005 0.014230169
0.201568 -0.0011654146 -0.02820306 -0.03875145 -0.16168825 -0.019282654 0.16848493 -0.021234019
-0.14086723 -0.11288053 -0.16907942 0.16032943 0.027531473 0.056885242 0.012432683 0.11800725
-0.22367904 -0.16174734 -0.1227777 0.1760538 -0.13555577 -0.03432589 -0.0053631333 -0.064462885
-0.078303814 -0.09571395 -0.10622233 0.080481 -0.19623783 -0.09040492 0.12514594 -0.055191014
0.13992617 0.045415998 0.12873593 0.0989862 -0.09614289 -0.093203485 -0.033244494 0.010615908
0.23397487 0.0038882683 -0.04679293 0.063081205 -0.13724278 0.018422911 -0.0242502 -0.040553533
-0.15696873 0.072322905 0.055612005 -0.046138186 0.07406487 0.09387295 -0.12507063 0.07709826
-0.107933246 -0.031111583 0.00051342405 0.31384012 0.20455222 0.1117301 -0.3028127 0.025962893
0.31856546 -0.41036096 -0.16687648 0.042069852 -0.15958078 0.015938975 -0.35952786 0.22452606
-0.35630304 0.09484966 -0.04617798 0.114143535 -0.13197726 -0.094122976 0.023300683 -0.019375112
-0.11226061 0.014011067 0.1917138 0.12726091 -0.31550494 -0.035704605 0.014456683 0.101306885
-0.072226435 -0.21968739 0.18240698 0.055618156 0.089704394 -0.13542137 -0.2576132 0.10135828
0.19258156 0.092130266 0.22680633 -0.18494414 -0.021855786 -0.20509246 0.147464 -0.030106101
-0.24463826 0.12521176 -0.05910067 0.28332978 -0.10053731 -0.3298185 0.1314197 -0.060598258
-0.0354532 -0.039814893 0.18577334 -0.1441547 -0.13025445 0.09647622 0.060556464 0.057958398
-0.65669745 0.52393055 0.008421305 0.3700597 -0.16227098 0.3204271 0.22776502 0.70282894
0.26319757 -0.14618233 0.0853048 0.8305894 0.06709107 -1.0186703 -0.43611667 0.3117524
-0.43398234 -0.32324082 -0.88556015 0.07216036 -0.5017165 -0.028482232 -0.2996379 -0.12961948
0.030618701 -0.77041936 0.19838929 -0.7929316 0.09493509 -0.056750614 0.5963176 0.87899214

fch.1.0.bias f4 [32]
00000000: 2443 423d 6d81 1fbe be4b 44be aabf 313e
00000010: eaae 0b3e d438 1c3e 99b4 6dbd f81e 62bd
00000020: 3329 5c3e 2456 a1bd dd03 b9bd cc78 443d
00000030: dcdb 283e a39b cebc d242 923d f050 bebd
00000040: 523b 04be 5a5c 49bd ca39 9dbd d3ce f03c
00000050: d3b4 40bd 4a05 97bd 4437 1cbe a47a b0bd
00000060: 5bd1 023e 4319 d8bd b6e0 59be 2446 dabd
00000070: 21e9 243a b370 223c 0275 793d 5117 da3c
0.04742731 -0.15576716 -0.19169518 0.1735827 0.13640943 0.15256053 -0.05803356 -0.055205315
0.21500091 -0.07877758 -0.0903394 0.047966763 0.1649012 -0.025220698 0.07141651 -0.09292781
-0.12913254 -0.04916034 -0.07677038 0.029395496 -0.047047447 -0.07374056 -0.15255457 -0.08617142
0.12775175 -0.10551693 -0.21277127 -0.106579095 0.00062908424 0.009914565 0.060902603 0.026622446

fce.weight f4 [1, 32]
00000000: aa92 313f ca15 f13e 0577 1f3e 2fdb 6cbe
00000010: 7a7b ef3c e767 e8be d8fc 7ebe ddf2 683f
00000020: 5293 f9bd 8467 fd3e 586e 09be 8567 91be
00000030: 758c 60be 3c3b 21be 0c69 ffbe c61d 7c3e
00000040: c7ea cb3d f165 1e3f 6491 3c3f 8a8e 5abe
00000050: 6a23 5e3f a3c7 13bf 3e73 463e cf31 acbe
00000060: 74a4 84be dc6d 003f 47f4 d13e 1201 c33e
00000070: 9e9c c83e bb1b c13e 1126 de3d f794 d2be
0.69364417 0.47086936 0.15572746 -0.23130487 0.029233683 -0.4539177 -0.2490114 0.9099558
-0.12186302 0.4949304 -0.13420999 -0.28399292 -0.2192858 -0.15745252 -0.49884832 0.24620733
0.099568896 0.618743 0.7365935 -0.21343437 0.8677279 -0.57726496 0.19379899 -0.3363175
-0.25906718 0.5016763 0.4100668 0.38086754 0.3918199 0.3771647 0.10847104 -0.41129276
