models/PINN_Pendulum.pth (torch, 12168 bytes, 7 tensors)

fcs.0.weight f4 [32, 1]
-1.0258194 -0.22251621 -0.6262238 0.7825812 -3.178996 2.244277 -1.0945294 -1.2743673
-0.7619076 0.86815107 -0.5593477 0.44075507 -1.3410028 -0.9777665 -0.522667 -0.75746375
-1.2618469 1.193145 -0.35004717 0.29234952 1.4022799 0.09718159 0.9029207 1.4085208
-0.3631622 0.15835126 -0.75570625 1.1584332 1.1522831 -1.304831 1.3441129 0.8853606
00000000: 0d4e 83bf 4adb 63be 3450 20bf 3e57 483f
00000010: ac74 4bc0 3ca2 0f40 8a19 8cbf 781e a3bf
00000020: 600c 43bf 263f 5e3f 6931 0fbf a6aa e13e
00000030: fba5 abbf e84e 7abf 81cd 05bf 25e9 41bf
00000040: 3384 a1bf fab8 983f 6239 b3be d6ae 953e
00000050: e87d b33f 2407 c73d d025 673f 694a b43f
00000060: 65f0 b9be d526 223e f775 41bf 8a47 943f
00000070: 037e 933f b404 a7bf e40b ac3f fea6 623f

fcs.0.bias f4 [32]
0.49320662 0.2714644 0.7373515 -0.1984002 0.14142206 -0.12517506 -0.5594509 0.11983661
0.088626094 -0.47216013 0.011900569 0.8832316 -0.035063777 0.085435085 0.08200993 0.28332493
1.0145214 0.25237682 0.36559305 -0.005491418 0.03564041 0.32447812 -0.35006145 -1.1151522
-0.57752883 0.8694006 0.07327485 -0.8341486 0.07943281 1.06437 -1.1798358 -0.5876331
00000000: 9485 fc3e 62fd 8a3e 11c3 3c3f 6c29 4bbe
00000010: f2d0 103e e42d 00be 2d38 0fbf e66c f53d
00000020: 9981 b53d f9be f1be 9bfa 423c 771b 623f
00000030: 099f 0fbd 97f8 ae3d d2f4 a73d f70f 913e
00000040: d6db 813f 8937 813e 032f bb3e 5af1 b3bb
00000050: aefb 113d ff21 a63e 413b b3be 4fbd 8ebf
00000060: eed8 13bf 0a91 5e3f 2011 963d c38a 55bf
00000070: abad a23d 473d 883f dc04 97bf 1f6f 16bf

fch.0.0.weight f4 [32, 32]
0.048015624 0.0772535 0.093149744 -0.16829368 -0.2853179 0.31874877 0.13252424 0.08123878
-0.10362856 -0.3341747 0.12894896 0.004569665 0.026629409 -0.14640051 0.056745544 0.4133325
0.26134044 0.03815228 0.19661205 -0.07105334 -0.05315069 -0.063294485 -0.34196073 -0.032288905
0.102271125 0.059503887 -0.06687611 -0.023302238 0.08691474 0.36837006 -0.33865172 -0.18462238
0.44312686 -0.008241934 0.017389005 -0.63046193 0.5747845 -1.1138848 0.2525936 0.2999662
0.21372293 -0.025168756 0.29209268 -0.017701758 0.46322507 0.34035367 0.30520478 0.23266904
0.07383017 -0.25488377 -0.13121672 -0.15290281 -0.43264443 -0.15372516 -0.40286687 0.22403364
0.14331758 -0.10401257 0.5657054 -0.05443653 -0.14258012 -0.12928188 0.17774694 0.15572533
0.90251523 0.38898265 0.35589907 -1.0290067 -0.2587667 -0.22494557 -0.2593258 0.040585518
0.110444926 -0.6759008 0.08202499 0.18077423 -0.05942101 0.12858647 0.12274208 1.4838984
0.7865262 0.0762145 0.3774159 0.036068927 -0.07142189 0.07904304 -1.4400462 -0.9089659
-0.18834281 0.35716152 0.33379284 -0.811112 -0.014168814 1.0534066 -0.86052114 -0.5659635
0.055474933 0.21323203 -0.10279979 0.25622502 0.2252368 0.017651185 -0.024505539 0.15765885
0.06759046 0.13255762 -0.096769854 -0.05485621 0.0016165848 -0.006773569 -0.19264989 -0.14740257
-0.2071999 -0.027884549 0.19194591 0.098132595 -0.0026892552 0.08368354 0.12423991 -0.10255966
-0.2125117 0.023904214 -0.16580293 0.10179799 0.14288282 -0.24227494 -0.09763527 -0.17473626
0.11595831 0.17259979 -0.10184177 -0.04353965 0.05145389 -0.2470712 0.1076021 0.0297063
-0.08652544 -0.015229724 0.004167456 -0.006044239 -0.1523137 -0.025340006 -0.049993183 -0.004079551
0.027552085 0.15113752 -0.013033697 0.027186234 0.09761763 -0.06580126 -0.13913898 -0.09653016
0.03372718 -0.03873266 -0.025210546 -0.03080717 -0.116512164 -0.07499251 0.032336336 -0.07154912
0.1000431 -0.15867884 -0.060827922 -0.17668396 0.054637495 -0.0080288695 -0.033978503 -0.061375305
-0.14678533 0.015024707 0.0178031 -0.12506329 0.049033415 -0.015751353 -0.16474548 0.15542366
0.09135649 -0.0170702 -0.09595056 -0.005210099 0.15796818 0.15274888 -0.17459632 -0.064529166
0.14384468 0.08221687 0.11767725 -0.09192595 0.16039926 -0.13443157 -0.03680297 -0.03301619
0.58976305 -0.053902786 0.33278853 -1.0538431 -0.0016148363 -1.2335488 -0.051364373 0.63376623
0.2893201 -0.25204736 0.31540066 -0.007078777 0.38246137 0.4773566 0.10772204 0.90314114
0.47215825 -0.124851935 0.15826057 -0.22248305 -0.25900966 -0.062537864 -2.3579912 -0.60451806
0.1522103 -0.13368052 0.7681259 -0.4807409 -0.22830737 0.67503 -0.26859692 -0.3171716
-0.18052432 -0.053032357 0.12590726 0.06257552 0.32081932 -0.25831756 -0.082523495 0.10091196
-0.077760756 0.074298725 0.019475373 0.17322718 0.027632268 0.021838438 0.0551905 -0.1417846
-0.13779186 0.07846827 -0.017382912 -0.03718188 -0.09394424 0.1820416 0.16787195 0.15609069
-0.21399492 0.28725594 -0.17833225 0.09906535 -0.08244862 -0.22506393 0.21856856 0.02603801
00000000: 08ac 443d 1537 9e3d 4bc5 be3d 2e55 2cbe
00000010: 3015 92be 0a33 a33e 6fb4 073e 8460 a63d
00000020: 363b d4bd f218 abbe 320b 043e 21bd 953b
00000030: eb25 da3c 04ea 15be 046e 683d 51a0 d33e
00000040: 6ace 853e 9145 1c3d ab54 493e 6a84 91bd
00000050: 8ab4 59bd 8aa0 81bd 7a15 afbe 5f41 04bd
00000060: 8673 d13d 59ba 733d 58f6 88bd 56e4 bebc
00000070: 5b00 b23d 009b bc3e c263 adbe a60d 3dbe
00000080: 86e1 e23e 2d09 07bc 6373 8e3c f465 21bf
00000090: 1425 133f c793 8ebf f353 813e 2b95 993e
000000a0: 2fda 5a3e b52e cebc 2c8d 953e 4703 91bc
000000b0: d62b ed3e d642 ae3e cd43 9c3e cb40 6e3e
000000c0: 4634 973d 2080 82be ad5d 06be 8e92 1cbe
000000d0: 9283 ddbe 216a 1dbe 9144 cebe 1369 653e
000000e0: d8c1 123e 8b04 d5bd 12d2 103f d7f8 5ebd
000000f0: 8600 12be 7862 04be 4b03 363e 7676 1f3e
00000100: 3d0b 673f bc28 c73e 6738 b63e 7eb6 83bf
00000110: 127d 84be 2258 66be 5ac6 84be 003d 263d
00000120: f330 e23d d607 2dbf b8fc a73d e11c 393e
00000130: 7263 73bd 2cac 033e 3360 fb3d 62f0 bd3f
00000140: c859 493f 5916 9c3d a83c c13e 03bd 133d
00000150: a445 92bd 51e1 a13d 6f53 b8bf fdb1 68bf
00000160: f0dc 40be e0dd b63e e5e6 aa3e 09a5 4fbf
00000170: 5024 68bc 07d6 863f 1d4b 5cbf fce2 10bf
00000180: af39 633d 7f59 5a3e b288 d2bd ed2f 833e
00000190: 7aa4 663e 3899 903c d7bf c8bc 5271 213e
000001a0: de6c 8a3d 2fbd 073e 462f c6bd e8b0 60bd
000001b0: 96e3 d33a d1f4 ddbb 0346 45be b3f0 16be
000001c0: 362c 54be 236e e4bc 788d 443e bef9 c83d
000001d0: 373e 30bb 4762 ab3d 7e71 fe3d cd0a d2bd
000001e0: ab9c 59be c5d2 c33c 3ec8 29be 777b d03d
000001f0: e04f 123e ec16 78be 00f5 c7bd 10ee 32be
00000200: 8d7b ed3d 00be 303e 6b92 d0bd a256 32bd
00000210: 50c1 523d 3c00 7dbe 7d5e dc3d a05a f33c
00000220: 4034 b1bd 1886 79bc 288f 883b c00e c6bb
00000230: 1ff8 1bbe d895 cfbc a7c5 4cbd c1ad 85bb
00000240: e9b4 e13c cbc3 1a3e 4a8b 55bc aab5 de3c
00000250: c1eb c73d d0c2 86bd 737a 0ebe 9bb1 c5bd
00000260: 8325 0a3d 23a6 1ebd 5986 cebc 515f fcbc
00000270: ee9d eebd ac95 99bd 1b73 043d 5888 92bd
00000280: 66e3 cc3d b57c 22be b326 79bd a4ec 34be
00000290: 91cb 5f3d 858b 03bc 0b2d 0bbd ac64 7bbd
000002a0: e54e 16be 302a 763c cfd7 913c 9710 00be
000002b0: 43d7 483d fb08 81bc 0ab3 28be 6127 1f3e
000002c0: 1d19 bb3d ced6 8bbc ba81 c4bd 7ab9 aabb
000002d0: 69c2 213e 346a 1c3e 61c9 32be de27 84bd
000002e0: 054c 133e 5161 a83d c500 f13d ac43 bcbd
000002f0: b43f 243e 6ea8 09be b6be 16bd fc3b 07bd
00000300: b6fa 163f 2bc9 5cbd 4263 aa3e 55e4 86bf
00000310: eaa8 d3ba ede4 9dbf 7363 52bd 813e 223f
00000320: c421 943e 5a0c 81be 327c a13e 16f5 e7bb
00000330: fad1 c33e 1668 f43e 5f9d dc3d 4234 673f
00000340: babe f13e 5fb2 ffbd 0f0f 223e 99d2 63be
00000350: ea9c 84be da13 80bd 54e9 16c0 b2c1 1abf
00000360: 04dd 1b3e 8ce3 08be e6a3 443f ac23 f6be
00000370: 68c9 69be c4ce 2c3f 8985 89be 5164 a2be
00000380: 5edb 38be 7538 59bd d5ed 003e 9827 803d
00000390: 6e42 a43e 3342 84be 1402 a9bd eeaa ce3d
000003a0: 0841 9fbd ee29 983d d18a 9f3c 7762 313e
000003b0: 115d e23c 86e6 b23c 6f0f 623d fb2f 11be
000003c0: 4f19 0dbe f9b3 a03d 9c66 8ebc 074c 18bd
000003d0: d665 c0bd 1d69 3a3e a0e6 2b3e 3dd6 1f3e
000003e0: 7c21 5bbe 3613 933e bb9c 36be c6e2 ca3d
000003f0: d2da a8bd 2977 66be 70d0 5f3e aa4d d53c

fch.0.0.bias f4 [32]
-0.1307356 -0.0479027 0.16054586 0.04744573 0.14889796 0.035770264 0.15360752 0.08294783
0.3331815 0.08156671 0.027252551 -0.13837498 -0.04076297 -0.013946114 -0.262003 0.1605529
0.24857464 -0.10266161 0.02306531 0.16828835 -0.15203291 0.131443 -0.05331075 -0.16846839
0.13754599 0.06379252 0.10585326 -0.16813682 0.04862401 0.053453356 0.1631601 0.15045197
00000000: 8edf 05be 9f35 44bd 2266 243e 7456 423d
00000010: b578 183e d783 123d 4a4b 1d3e 8de0 a93d
00000020: c496 aa3e 720c a73d be40 df3c 2cb2 0dbe
00000030: 12f7 26bd 3e7e 64bc 4225 86be fb67 243e
00000040: 5a8a 7e3e 4040 d2bd 76f3 bc3c c853 2c3e
00000050: 84ae 1bbe fe98 063e 5f5c 5abd fa82 2cbe
00000060: dbd8 0c3e a7a5 823d 98c9 d83d 0f2c 2cbe
00000070: f829 473d e8f1 5a3d 7113 273e 1510 1a3e

fch.1.0.weight f4 [32, 32]
0.057510782 0.07213179 -0.02649614 -0.016607672 0.05946493 -0.11122466 0.32261327 -0.09212267
-0.558103 -0.014033582 -0.11430187 0.18860297 0.07917907 -0.12498929 0.14277983 -0.11415849
0.15887165 -0.10742003 0.22885676 -0.19306523 -0.12890112 0.08542227 -0.36550212 -0.03140707
0.13785121 -0.067782186 -0.08349974 0.025303911 0.06332043 -0.11704798 -0.098266825 -0.08345004
0.17692107 -0.5992618 -0.009040007 0.09016764 -0.11992509 -0.08680484 0.029555807 -0.20097648
-0.35589722 0.09997754 -0.23900376 0.03382309 -0.07688998 0.06687734 0.20847423 -0.1035299
0.46564516 0.27417266 -0.024269484 0.13932386 0.10821583 0.2924476 -0.15495463 0.09577741
0.31742415 0.11761571 -0.3148943 0.12668066 -0.4094751 0.0063600168 -0.1064423 -0.25299942
-0.093604654 -0.18715063 -0.18492822 0.19753474 0.023391832 -0.14532515 -0.7797776 0.07443993
-0.05884738 -0.06214305 -0.13147834 0.13308418 -0.18146642 0.0961308 -0.07927008 0.01947202
0.14343888 0.39258912 -0.15112795 0.2996091 0.17926948 0.29967645 -0.13164094 -0.08891835
0.32573786 -0.07905778 -0.24117364 0.02639214 -0.41279733 -0.100930415 -0.16911311 -0.42215607
0.060796596 0.20210576 0.039418843 -0.09138682 0.08142847 0.1802538 0.03767362 0.09367896
0.32422316 0.03949081 -0.032883618 0.059632767 -0.044906553 -0.06526408 0.10629825 0.120355144
-0.056914523 -0.15443882 -0.26174134 -0.03140439 0.020710215 0.11129758 0.027229838 -0.032715973
-0.10924657 -0.1565634 -0.06941096 0.16978349 -0.11222444 -0.07676262 0.050773464 0.014814652
-0.034743354 -0.15831147 -0.23599821 0.1534227 -0.20982966 -0.030296892 0.027407637 -0.045755774
0.061419 -0.024596645 0.16024166 0.14236712 -0.024934506 -0.07678513 -0.028337156 0.033366032
0.13517123 0.020458069 -0.09224017 0.13929898 -0.1317032 -0.10750882 0.071993686 -0.05540977
-0.13829827 0.08075079 0.09449136 -0.034908105 0.0494793 0.10932497 -0.11351947 0.038126003
-0.9807502 0.6741386 -0.004355095 0.45460135 0.08925618 -0.012885861 -0.30392268 0.8416742
1.5509545 -0.6202823 0.42282617 0.1867777 -0.2944645 0.25018153 -0.62921673 0.54038733
-1.085696 0.057195853 -0.14984404 -0.3521169 -0.2644761 -0.28951463 0.2123589 -0.38627586
-0.39203855 -0.0672159 0.41936362 -0.023802938 -0.050801866 -0.056689568 0.28503394 -0.42219332
0.5364894 -0.2278746 0.4889455 -0.06873111 0.096887395 0.1681982 -0.27841562 -0.29620218
-0.81514966 1.0265595 0.13865674 -0.51567066 0.64698607 -0.73657304 0.42032647 -0.07599254
0.019055665 0.1498748 -0.02938132 0.13103282 -0.103452556 -0.07879316 0.6898162 -0.05434465
0.19946039 -0.066838965 0.13720372 -0.13457139 -0.22204182 0.05429257 -0.037343476 -0.15461305
-0.33040822 0.58845264 0.065701 0.12029136 0.045800295 0.032181863 -0.15886825 0.096999995
0.8518061 -0.03781374 0.34247887 0.0344546 -0.026206577 -0.19720909 0.016956098 0.15988655
-0.74344945 -0.19900164 0.0073801517 -0.26516253 -0.28396195 -0.3023826 -0.15630037 -0.030647723
-0.105294734 -0.07723737 0.28584415 -0.5449059 0.5132867 -0.047396548 -0.013509679 0.33614233
00000000: 6d90 6b3d d5b9 933d 6f0e d9bc d00c 88bc
00000010: 8091 733d c1c9 e3bd 912d a53e cfaa bcbd
00000020: d7df 0ebf 1ced 65bc 1917 eabd 2321 413e
00000030: a328 a23d 63fa ffbd e034 123e edcb e9bd
00000040: 40af 223e 08ff dbbd 6d59 6a3e e4b2 45be
00000050: a8fe 03be dff1 ae3d 1823 bbbe b3a4 00bd
00000060: de28 0d3e 63d1 8abd e901 abbd 264a cf3c
00000070: 24ae 813d dab6 efbd 1e40 c9bd dbe7 aabd
00000080: cc2a 353e 3969 19bf 8a1c 14bc d0a9 b83d
00000090: 499b f5bd bcc6 b1bd 051f f23c c7cc 4dbe
000000a0: 2938 b6be 06c1 cc3d 67bd 74be 158a 0a3d
000000b0: 7e78 9dbd fdf6 883d 457a 553e 7c07 d4bd
000000c0: 0b69 ee3e 5c60 8c3e ccd0 c6bc eaaa 0e3e
000000d0: 43a0 dd3d b1bb 953e 6dac 1ebe f226 c43d
000000e0: 6b85 a23e 81e0 f03d d339 a1be 93b8 013e
000000f0: b8a6 d1be b067 d03b 6cfe d9bd 2489 81be
00000100: ccb3 bfbd 6aa4 3fbe d35d 3dbe 8c46 4a3e
00000110: 3aa0 bf3c 1ed0 14be 819f 47bf f673 983d
00000120: f309 71bd b689 7ebd 42a2 06be 3847 083e
00000130: 55d2 39be 3ae0 c43d 5a58 a2bd c983 9f3c
00000140: a4e1 123e 7101 c93e 49c1 1abe 5d66 993e
00000150: 6b92 373e 316f 993e e2cc 06be d31a b6bd
00000160: 1dc7 a63e 0ce9 a1bd 39f6 76be 5434 d83c
00000170: 2c5a d3be 9bb4 cebd fd2b 2dbe d724 d8be
00000180: da05 793d d0f4 4e3e a775 213d 0329 bbbd
00000190: f8c3 a63d 7494 383e a74f 1a3d c1da bf3d
000001a0: 9400 a63e 1ec1 213d f9b0 06bd 7d41 743d
000001b0: efef 37bd 2da9 85bd e6b2 d93d c27c f63d
000001c0: 341f 69bd 3625 1ebe f602 86be e4a1 00bd
000001d0: 78a8 a93c fcef e33d 1c11 df3c 2f01 06bd
000001e0: aabc dfbd 2852 20be 5527 8ebd b9db 2d3e
000001f0: edd5 e5bd b835 9dbd d6f7 4f3d 27b9 723c
00000200: 0c4f 0ebd 671c 22be 84a9 71be d71a 1d3e
00000210: 96dd 56be 3031 f8bc fb85 e03c 686a 3bbd
00000220: 7d92 7b3d e77e c9bc 6416 243e b0c8 113e
00000230: 7343 ccbc 8641 9dbd 5323 e8bc d2aa 083d
00000240: 546a 0a3e ae97 a73c 6ae8 bcbd 64a4 0e3e
00000250: 34dd 06be 962d dcbd 6d71 933d 5bf5 62bd
00000260: 109e 0dbe ac60 a53d b084 c13d cdfb 0ebd
00000270: ceaa 4a3d c5e5 df3d e57c e8bd 032a 1c3d
00000280: 7212 7bbf 5994 2c3f 2fb5 8ebb 82c1 e83e
00000290: f2cb b63d 381f 53bc c19b 9bbe f677 573f
000002a0: ad85 c63f d2ca 1ebf ac7c d83e a742 3f3e
000002b0: 0dc4 96be cb17 803e 5914 21bf d356 0a3f
000002c0: 16f8 8abf 3346 6a3d b770 19be ab48 b4be
000002d0: 6969 87be 433b 94be 9d74 593e f3c5 c5be
000002e0: 47b9 c8be 7da8 89bd d4b6 d63e 61fe c2bc
000002f0: 9e15 50bd 5233 68bd f8ef 913e b929 d8be
00000300: 5f57 093f f657 69be 1157 fa3e e5c2 8cbd
00000310: e66c c63d 263c 2c3e 7e8c 8ebe d0a7 97be
00000320: a6ad 50bf 4d66 833f 08fc 0d3e fe02 04bf
00000330: e1a0 253f 0d90 3cbf 0835 d73e faa1 9bbd
00000340: a01a 9c3c c878 193e 18b1 f0bc 782d 063e
00000350: efde d3bd 4f5e a1bd cb97 303f 7f98 5ebd
00000360: 583f 4c3e dee2 88bd 227f 0c3e 15cd 09be
00000370: ee5e 63be e361 5e3d 79f5 18bd e252 1ebe
00000380: 442b a9be d5a4 163f 3f8e 863d 515b f63d
00000390: 1799 3b3d 21d1 033d 5cae 22be efa7 c63d
000003a0: f70f 5a3f 95e2 1abd 6459 af3e 4420 0d3d
000003b0: 2daf d6bc 2ef1 49be 84e7 8a3c 4db9 233e
000003c0: b452 3ebf 16c7 4bbe 33d5 f13b 62c3 87be
000003d0: 7663 91be e4d1 9abe 340d 20be ef10 fbbc
000003e0: c4a4 d7bd a02e 9ebd 2a5a 923e f47e 0bbf
000003f0: c266 033f e222 42bd b357 5dbc d91a ac3e

fch.1.0.bias f4 [32]
0.054367118 -0.11186596 -0.16768502 0.15568352 0.1795485 0.20170297 -0.106278494 0.066688865
0.19320717 -0.06451318 -0.15962437 0.006774235 0.16753222 -0.12332968 0.019682152 -0.081628576
-0.054763533 0.041136637 -0.03036632 0.027016891 -0.026407558 -0.09444541 -0.20927785 -0.21499553
0.026850287 -0.036152195 -0.11541256 -0.01666732 0.076994866 0.2557696 0.08574192 -0.08864643
00000000: 0eb0 5e3d fb19 e5bd 9fb5 2bbe 806b 1f3e
00000010: 90db 373e 398b 4e3e 8aa8 d9bd 2c94 883d
00000020: 1ad8 453e 7c1f 84bd 9274 23be 67fa dd3b
00000030: 918d 2b3e 4594 fcbd 773c a13c e22c a7bd
00000040: ba4f 60bd e47e 283d cac2 f8bc 8752 dd3c
00000050: aa54 d8bc 986c c1bd ef4c 56be ca27 5cbe
00000060: 22f5 db3c 5314 14bd 6c5d ecbd e789 88bc
00000070: 7caf 9d3d 3cf4 823e 7699 af3d 428c b5bd

fce.weight f4 [1, 32]
0.023874689 -0.3745328 0.108307295 -0.0031009542 -0.007193876 -0.51937664 -0.26891842 0.41932416
-0.3137564 0.18848383 -0.2682219 -0.0016409154 -0.00060478714 -0.20529784 -0.0040653595 -0.23141952
0.1378909 -0.0006932713 0.07293759 -0.3076559 0.73799354 0.0026998061 -0.13037743 -0.16262133
0.012021398 0.0018136787 0.12926309 -0.0010193817 0.05566998 0.1705738 0.08517128 -0.0028154007
00000000: da94 c33c c3c2 bfbe 37d0 dd3d 6139 4bbb
00000010: 9bba ebbb def5 04bf adaf 89be a8b1 d63e
00000020: aea4 a0be e801 413e 6254 89be fc13 d7ba
00000030: 948a 1eba 9939 52be b536 85bb 3df9 6cbe
00000040: 4633 0d3e a6bc 35ba 4e60 953d 1385 9dbe
00000050: 25ed 3c3f 3bef 303b a981 05be 3586 26be
00000060: 66f5 443c f5b8 ed3a 8b5d 043e c69c 85ba
00000070: 3406 643d e6aa 2e3e 486e ae3d 9682 38bb
