models/PINN_Pendulum_w0_3.pth (torch, 12228 bytes, 7 tensors)

fcs.0.weight f4 [32, 1]
0	0xbfddf6d7	-1.7340955
1	0xbef8647f	-0.48514172
2	0xbfa9518d	-1.3228012
3	0x3feceacf	1.8509158
4	0xc07d8af2	-3.9616055
5	0x40461c44	3.0954752
6	0xbfa1959b	-1.2623781
7	0xbfacec83	-1.3509678
8	0xbfd391ed	-1.6528908
9	0x3fe3e2d2	1.7803595
10	0xbf6d50b2	-0.92701256
11	0x3e8775cb	0.26457056
12	0xbfda1f4f	-1.7040805
13	0xbfb9146a	-1.4459355
14	0xbf6194c7	-0.8811764
15	0xbfb0c883	-1.3811191
16	0xbfc729cd	-1.5559632
17	0x3f92ac60	1.1458855
18	0xbf812a75	-1.0091082
19	0x3eece743	0.4627019
20	0x400397f8	2.0561504
21	0xbed29e1b	-0.4113625
22	0x3fa36fed	1.2768532
23	0x3fe27f2e	1.7695062
24	0xbf172956	-0.5904745
25	0xbed4e712	-0.41582543
26	0xbfb037d2	-1.3767035
27	0x3fbfcf06	1.4985054
28	0x3fca8332	1.5821288
29	0xbfd4e3fc	-1.6632075
30	0x3ffc5f63	1.971661
31	0x3faccdff	1.3500365

fcs.0.bias f4 [32]
0	0x3f9578f2	1.1677535
1	0x3ee91f06	0.45531482
2	0x3f20491f	0.62611574
3	0xbe9a9ff0	-0.30200148
4	0x3c702968	0.0146583095
5	0xbe4ea4f8	-0.20180118
6	0xbf1a7aef	-0.6034383
7	0x3e1ff8cd	0.15622254
8	0xb987cc74	-0.00025901536
9	0xbee708db	-0.45123944
10	0x3d9c5c03	0.07634737
11	0x3f4056ce	0.75132453
12	0x3d104ea6	0.035231255
13	0x3e0d1f6d	0.13781519
14	0x3d8b3a59	0.06798238
15	0x3e309f0e	0.17248175
16	0x3f9f2196	1.2432125
17	0x3e130adb	0.1435961
18	0x3f3cee65	0.7380126
19	0xbda46252	-0.080265656
20	0x3d10e32a	0.03537289
21	0x3eb76b61	0.3582411
22	0xbedbdcb9	-0.42941836
23	0xbfd1778a	-1.6364605
24	0xbeb531cf	-0.35389563
25	0x3f06b38d	0.5261772
26	0x3e4b1d46	0.19835386
27	0xbf902a81	-1.1262971
28	0x3d48b5da	0.049001552
29	0x3fcc980e	1.5983903
30	0xc0006136	-2.0059333
31	0xbf81bb82	-1.0135348

fch.0.0.weight f4 [32, 32]
0	0xbc7efc6c	-0.015563112
1	0xbd39ad4e	-0.04533129
2	0xbc1cce9d	-0.009570745
3	0xbcb43feb	-0.022003135
4	0xbe6188c2	-0.22024825
5	0x3e14e2fd	0.14539714
6	0x3e642eda	0.22283497
7	0x3dc908c2	0.098161235
8	0xbe0432ea	-0.12910047
9	0xbe309177	-0.1724299
10	0x3deb0158	0.11474866
11	0xbde7621f	-0.11298012
12	0x3d688362	0.05676592
13	0xbe212d00	-0.15739822
14	0x3d0ffe43	0.035154592
15	0x3e58cf42	0.21172813
16	0x3e062a9a	0.13102189
17	0xbca4e253	-0.020127451
18	0x3d471517	0.048604097
19	0xbda86398	-0.08222121
20	0xbda6b590	-0.08140099
21	0xbdd69f5f	-0.104796164
22	0xbe58bb48	-0.21165192
23	0x3ce9eb6d	0.028554643
24	0x3e353964	0.17697674
25	0xbc7a602a	-0.015281716
26	0xbdfa062f	-0.12208211
27	0x3da4c76b	0.080458485
28	0x3d51bb82	0.051204212
29	0x3e53f4f7	0.20698915
30	0xbe270757	-0.16311394
31	0x3ac4e3ff	0.0015021561
32	0x3f91175d	1.1335255
33	0x3e2519fd	0.16123195
34	0x3ef86789	0.4851649
35	0xc0370705	-2.8598034
36	0x3f2f1fd4	0.6840794
37	0xbfe69840	-1.8015213
38	0x3e29813b	0.16553204
39	0x3f5578b6	0.83387315
40	0x3ef4e4ae	0.4783072
41	0xbf46560b	-0.7747504
42	0x3f338741	0.70128256
43	0x3e1bc569	0.15212025
44	0x3f3c1000	0.73461914
45	0x3f67fb4d	0.9061783
46	0x3f087746	0.53306997
47	0x3fd5c7bb	1.6701578
48	0x3f661c35	0.8988679
49	0xbe6ef6b5	-0.23336299
50	0x3eb9b262	0.36268908
51	0xbe510c9a	-0.20414963
52	0xbf247922	-0.64247334
53	0xbcc8b79f	-0.02450162
54	0xbff42aa2	-1.907551
55	0xbef2a293	-0.4738966
56	0x3d57a5ef	0.05264848
57	0x3db1135e	0.08646272
58	0x3f9db12f	1.2319697
59	0xbf2f9647	-0.6858868
60	0xbeac6d31	-0.33677056
61	0x3f485308	0.78251696
62	0xbe9e8c43	-0.30966386
63	0xbea35285	-0.31898895
64	0x3fd6e0bd	1.6787335
65	0x3edc9ff7	0.43090793
66	0x3f380887	0.7188801
67	0xbfac9c54	-1.3485208
68	0xbe472d59	-0.19450893
69	0xbe32f1e7	-0.17475091
70	0xbe7010dd	-0.23443933
71	0x3d835324	0.06412342
72	0x3de422d8	0.111394584
73	0xbf90b75c	-1.1305957
74	0x3e7b8d8c	0.24565715
75	0x3e312bac	0.17301816
76	0x3d8284d5	0.06372992
77	0x3e4d2957	0.20035301
78	0x3e400b5c	0.18754333
79	0x3f32f5d8	0.6990638
80	0x3f92f867	1.1482056
81	0x3d072c14	0.03300102
82	0x3f2a9313	0.6663067
83	0xbc833869	-0.01601811
84	0xbdbe9115	-0.09305016
85	0x3c780374	0.015137542
86	0xbf95b1a3	-1.1694835
87	0xbfaacd0c	-1.3343825
88	0xbe0a3986	-0.13498506
89	0x3eaa6672	0.33281285
90	0x3f1c5a32	0.6107513
91	0xbf8e54b9	-1.1119605
92	0xbdf0de09	-0.117611
93	0x3fd5ced2	1.6703742
94	0xbf880ca1	-1.0628854
95	0xbf38f90f	-0.72255033
96	0xbcbe5a8c	-0.023236535
97	0x3e390996	0.18070063
98	0xbe03bf45	-0.12865932
99	0x3ed4641c	0.41482627
100	0xbd439ccf	-0.047756966
101	0x3f038076	0.5136789
102	0xbd3ed7f9	-0.046592686
103	0xbd99e47b	-0.07514282
104	0xbd326aa9	-0.04355875
105	0x3e394bd1	0.18095328
106	0xbe545ccf	-0.20738529
107	0xbdae12d2	-0.084996834
108	0xbe3e112d	-0.1856124
109	0xbe41a86f	-0.18911909
110	0xbe6e8780	-0.23293877
111	0xbe9386e3	-0.28813848
112	0xbe6aa918	-0.22916067
113	0x3d152a69	0.0364174
114	0x3e0911cc	0.13385695
115	0x3e10a846	0.14126691
116	0x3e26e874	0.16299611
117	0x3d83d0a4	0.064362794
118	0x3e4c2607	0.19936381
119	0xbddc2b8c	-0.107504934
120	0xbe54fb2f	-0.20798944
121	0xbca01c70	-0.01954481
122	0xbe9be700	-0.30449677
123	0x3e041750	0.12899518
124	0x3e8fe830	0.28106833
125	0xbe6302b0	-0.22168994
126	0xbe067876	-0.1313189
127	0xbe1962eb	-0.1497914
128	0x3f341a26	0.703524
129	0x3e92945d	0.28628817
130	0x3d9a362e	0.07529865
131	0xbe2a91e0	-0.1665721
132	0x3d1db1e9	0.038499746
133	0xbe028d15	-0.12749131
134	0x3dfb3c47	0.12267356
135	0x3d846cc4	0.06466058
136	0xbd4f3363	-0.050586116
137	0xbe43f7c8	-0.1913749
138	0x3dbc09c5	0.09181551
139	0xbcbcb604	-0.02303601
140	0xbe039b3f	-0.1285219
141	0x3d4e680c	0.050392196
142	0x3d1e2af0	0.038615167
143	0x3e217eaf	0.15770982
144	0x3eb98eec	0.36241853
145	0x3e03b3eb	0.12861602
146	0x3ef4c5df	0.47807214
147	0xbd613b72	-0.054988332
148	0x3dbc19dc	0.0918462
149	0x3c5ffd2f	0.0136712035
150	0xbe7103d3	-0.23536615
151	0xbeb5c1f3	-0.35499534
152	0x3d86e6e4	0.06587008
153	0xbbc137cf	-0.0058965455
154	0x3de06da6	0.10958414
155	0xbec64e19	-0.3873146
156	0xbe12b817	-0.14328037
157	0x3e66f421	0.22554065
158	0xbe6f5f4f	-0.23376201
159	0xbedde5c7	-0.4333937
160	0x3fa197e1	1.2624475
161	0x3d19736f	0.0374636
162	0x3e8791b7	0.2647836
163	0xbea7ba96	-0.3275954
164	0x3c888b7d	0.016668076
165	0x3d43cf19	0.047804926
166	0xbcbcf91a	-0.023068
167	0x3c0258c3	0.007955733
168	0xbdf7915d	-0.12088273
169	0xbe6cd8e6	-0.23129615
170	0x3dbcbe2f	0.09215962
171	0xbe0a5ee9	-0.13512768
172	0x3daf61b1	0.08563555
173	0x3da530d7	0.08065956
174	0xbd952e4c	-0.07284221
175	0x3e6eac0b	0.23307817
176	0x3f3e6668	0.7437501
177	0xbd5ffa03	-0.05468179
178	0x3f8271b7	1.0190953
179	0xbdf101ff	-0.11767959
180	0x3e1a12d0	0.15046239
181	0x3eb25c8c	0.34836233
182	0xbec0f5de	-0.37687582
183	0xbf1a265c	-0.6021478
184	0x3e2cf036	0.16888508
185	0x3e2cf419	0.16889991
186	0x3e8a685d	0.27032748
187	0xbf717866	-0.9432434
188	0x3df348a5	0.1187909
189	0x3efeda7a	0.4977606
190	0xbf0a4f34	-0.54027104
191	0xbf67239b	-0.90288705
192	0x3ec0aab4	0.37630236
193	0xbdc278ef	-0.094957225
194	0x3e973299	0.2953079
195	0xbf3ab1b1	-0.72927386
196	0x3cfd7d82	0.030943636
197	0xbf97091d	-1.1799656
198	0xbd3b69b3	-0.0457551
199	0x3f146519	0.5796676
200	0x3e943a99	0.28950956
201	0xbe08111f	-0.13287781
202	0x3e7f8c9b	0.2495598
203	0xbc783e31	-0.015151546
204	0x3eb9e814	0.36309874
205	0x3ed551c2	0.4166394
206	0x3da7bf47	0.0819078
207	0x3f642545	0.8911937
208	0x3eb81b79	0.3595846
209	0xbde0de2e	-0.109798774
210	0x3dd236f0	0.10264385
211	0xbe5c5866	-0.21518096
212	0xbe8431b7	-0.2581918
213	0xbdb1805e	-0.08667062
214	0xbfeeba00	-1.8650513
215	0xbee02f73	-0.437862
216	0x3e2c064c	0.16799277
217	0xbe0ef66b	-0.13961188
218	0x3f307fbc	0.6894491
219	0xbeac0f25	-0.33605304
220	0xbe613213	-0.21991758
221	0x3f03c3c3	0.51470584
222	0xbe0a2bc0	-0.13493252
223	0xbe5b5c01	-0.21421815
224	0xbe60ab09	-0.21940245
225	0x39c7204e	0.00037980307
226	0x3e0e276e	0.13882229
227	0x3da92f41	0.08260966
228	0x3e6aceea	0.22930494
229	0xbdf4d1e7	-0.11954098
230	0xbdaaba6d	-0.08336339
231	0x3d2e5fa9	0.042571697
232	0xbd4b8191	-0.04968411
233	0x3caf0833	0.021366214
234	0x3baee467	0.0053372863
235	0x3e2bd9a4	0.16782242
236	0xbc2c9fb5	-0.010536124
237	0xbb56cbda	-0.0032775314
238	0x3d5d61c9	0.054048333
239	0xbde2d15d	-0.11075089
240	0xbe024df7	-0.12725054
241	0x3db52bdc	0.08846256
242	0x3ca72cc4	0.020407088
243	0xbd5669e1	-0.052347068
244	0xbd967abc	-0.073476285
245	0x3e26e304	0.16297537
246	0x3dadfc4c	0.084953874
247	0x3e8d2e3d	0.2757434
248	0xbe384cff	-0.17998122
249	0x3e877726	0.2645809
250	0xbe167612	-0.14693478
251	0x3df1ec49	0.11812646
252	0xbd7ed2a2	-0.062212594
253	0xbe76e1dd	-0.24109598
254	0x3e88ddec	0.26731813
255	0xbcc375ce	-0.023859885

fch.0.0.bias f4 [32]
0	0xbe859051	-0.26086667
1	0x3e21deaf	0.15807603
2	0x3e2578ed	0.16159411
3	0x3bb6e0da	0.0055810036
4	0x3e0a1e75	0.13488181
5	0x3d110c37	0.03541204
6	0x3e0d2d9b	0.13786928
7	0x3da174fa	0.0788364
8	0xbe0c98d1	-0.1373017
9	0xbd7a35da	-0.061086513
10	0x3e44452a	0.19167009
11	0xbda70872	-0.08155908
12	0x3b705fa1	0.0036678093
13	0x3e1c970d	0.15291996
14	0xbe419f95	-0.18908532
15	0xbc4730ce	-0.012157632
16	0x3e59cc93	0.21269445
17	0xbc563911	-0.013075129
18	0x3dabd22b	0.08389696
19	0x3ddf59f1	0.10905827
20	0xbdaad96c	-0.08342251
21	0xbe0f0867	-0.13968049
22	0xbd74613a	-0.059663035
23	0xbcc1af43	-0.023643142
24	0x3e6f67b2	0.233794
25	0x3c82461b	0.01590257
26	0x3e0ccdd6	0.13750395
27	0xbe6d806c	-0.2319352
28	0x3eacd18c	0.33753622
29	0x3d2e4289	0.04254392
30	0x3e513bf6	0.2043303
31	0xbe776b2c	-0.24161977

fch.1.0.weight f4 [32, 32]
0	0x3e28054c	0.1640827
1	0x3dda0546	0.10645537
2	0x3c79a36e	0.015236719
3	0x3bb155b8	0.00541183
4	0x3d836da3	0.06417396
5	0x3d1efeae	0.0388171
6	0x3df1137f	0.11771297
7	0xbdb8679c	-0.09004137
8	0x3df5a6e0	0.119947195
9	0x3e136afa	0.14396277
10	0xbe0dec50	-0.13859677
11	0x3e22e601	0.15908052
12	0x3e535585	0.20638092
13	0xbe584e0f	-0.21123527
14	0x3e12b3b4	0.14326364
15	0xbe3a25fe	-0.18178555
16	0x3d96b594	0.07358852
17	0xbe2a43c6	-0.16627416
18	0x3dc8bc41	0.098015316
19	0xbe20e17f	-0.1571102
20	0xbe35ddc7	-0.17760383
21	0x3e0948ca	0.13406673
22	0xbc8b0251	-0.016968878
23	0xbdae3db2	-0.08507861
24	0x3dcce0f7	0.10003846
25	0xbd90144a	-0.0703512
26	0xbd8afdcd	-0.0678669
27	0xbbfe30a1	-0.007757262
28	0xbd5fe0f8	-0.054657906
29	0xbe1aaac5	-0.15104206
30	0xbd5a526e	-0.053301267
31	0xbd548d28	-0.05189243
32	0x3cd007e4	0.025394388
33	0xbe9b046d	-0.30276814
34	0x3ec0eed9	0.37682226
35	0x3d9860ba	0.07440324
36	0xbe6813ca	-0.22663799
37	0xbec40202	-0.38282782
38	0x3e1a9fc8	0.15100014
39	0x3e158e6d	0.14605112
40	0x3f06c480	0.52643585
41	0x3c9023cf	0.0175952
42	0xbe557a02	-0.20847324
43	0x3d04a4a4	0.032383576
44	0xbde40b6e	-0.111349925
45	0xbe039d92	-0.12853077
46	0x3e7170ed	0.23578234
47	0x3d958600	0.07300949
48	0x3e9e8a7b	0.30965027
49	0x3d010526	0.03149905
50	0xbe10142d	-0.14070196
51	0xbd9429f5	-0.07234565
52	0xbd33f515	-0.0439349
53	0xbd0b65bf	-0.03403258
54	0xbe6de1dc	-0.2323069
55	0xbe944a3f	-0.28962895
56	0x3d9b4865	0.075821675
57	0x3d54abb1	0.05192155
58	0xbe4621fb	-0.193489
59	0x3e022c85	0.12712295
60	0xbe2ace25	-0.166802
61	0xbd9b360b	-0.07578667
62	0x3debd4fe	0.115152344
63	0x3d0e628c	0.03476195
64	0xbe4a69a2	-0.19766858
65	0xbe7d6247	-0.24744521
66	0xbeb0d17d	-0.34534827
67	0x3eb9d0b7	0.3629205
68	0xbc8c8c1b	-0.017156651
69	0xbeaecfc8	-0.341429
70	0xbf385e20	-0.72018623
71	0x3e50eb76	0.20402321
72	0x3f97a944	1.1848531
73	0xbd2f4a18	-0.04279527
74	0xbf5b4974	-0.85658956
75	0x3e412adc	0.18864006
76	0xbed3a003	-0.41333017
77	0x3ee21393	0.4415556
78	0xbe3d2674	-0.184717
79	0xbdba903a	-0.0910954
80	0x3d284c29	0.041088257
81	0x3eb4ea1d	0.35334864
82	0x3e582fd2	0.21111992
83	0x3f31d482	0.69464886
84	0x3ea450e6	0.3209297
85	0x3f04f6c9	0.51939064
86	0xbf47d107	-0.78053325
87	0xbe4dbf00	-0.20092392
88	0x3ef2b625	0.4740459
89	0xbc9811d6	-0.018563192
90	0xbeedb6d9	-0.46428564
91	0xbd8ca9aa	-0.06868298
92	0xbe85c56d	-0.26127186
93	0xbe9d4394	-0.3071562
94	0xbf533a8e	-0.8251122
95	0xbeb07e56	-0.34471387
96	0x3c88b165	0.01668615
97	0x3e1c780d	0.1528017
98	0x3dc8d013	0.09805312
99	0xbdbbe291	-0.091740735
100	0x3d8e1748	0.06938034
101	0x3e3e79e2	0.18601182
102	0xbe00f7a0	-0.12594461
103	0xbd44823a	-0.047975756
104	0x3e3aa57b	0.18227188
105	0xbcdc4efe	-0.026893135
106	0x3c81e520	0.015856326
107	0xbc542aa0	-0.012949616
108	0xbdbba373	-0.09162035
109	0x3c94c0ce	0.018158343
110	0x3de12ee0	0.10995269
111	0xbe702b44	-0.23454005
112	0x3d918815	0.07106034
113	0xbd70555f	-0.058675166
114	0xbdb71b73	-0.089407824
115	0xbabcf6ad	-0.0014416777
116	0x3dabff2f	0.08398282
117	0x3df15cdd	0.117852904
118	0xbc89179e	-0.016734894
119	0x3e0462ae	0.12928268
120	0xbcfef5f5	-0.03112314
121	0xbe0abaec	-0.13547868
122	0xbdc7651a	-0.097360805
123	0x3e4490a5	0.19195803
124	0xbe7ccb13	-0.24686842
125	0xbc98d8d7	-0.018658085
126	0xbc5bc19c	-0.013412859
127	0xbdfbd239	-0.12295956
128	0xbe043f02	-0.1291466
129	0xbe50fe9f	-0.2040963
130	0x3d4037b0	0.046928108
131	0x3dbaa30a	0.091131285
132	0xbe8badab	-0.27280936
133	0xbe68e980	-0.22745323
134	0x3da3efea	0.08004744
135	0x3d08d0e6	0.033402346
136	0x3e8d6c2c	0.2762159
137	0x3e38c044	0.18042094
138	0x3e3e88d5	0.18606885
139	0x3dff1ac4	0.12456277
140	0xbd83dbcf	-0.064384095
141	0xbe1257b9	-0.14291276
142	0xbd39219c	-0.045198068
143	0x3f066986	0.52504766
144	0x3e8a1ff2	0.26977497
145	0xbde62326	-0.11237173
146	0xbdaeacd7	-0.0852906
147	0x3d8ceeda	0.06881495
148	0xbe4d7751	-0.20065047
149	0xbe963270	-0.29335356
150	0xbd85c96c	-0.06532559
151	0xbeb9db02	-0.36299902
152	0xbe924ea3	-0.2857562
153	0x3d4e2181	0.05032492
154	0x3db2a0ef	0.08722102
155	0xbe43a464	-0.19105679
156	0x3efeb153	0.49744663
157	0x3dbea26f	0.093083255
158	0xbd7b5f8a	-0.06137041
159	0x3ec2bbb7	0.3803384
160	0xbe360efd	-0.17779155
161	0x3e0f7bad	0.14012022
162	0x3ddbce9f	0.10732769
163	0xbca581b1	-0.020203443
164	0xbd35fb55	-0.044429142
165	0x3d907eb2	0.07055415
166	0xbe4faffa	-0.20281973
167	0x3e102b18	0.14078939
168	0xbed85ae3	-0.4225684
169	0xbf78106c	-0.9690006
170	0xbcb265ab	-0.021776995
171	0x3d7b3d2e	0.061337642
172	0xbeff43d1	-0.49856427
173	0x3e152945	0.14566524
174	0x3e8108dd	0.25202075
175	0xbdea0af8	-0.114278734
176	0xbf37b451	-0.71759516
177	0x3dfeab7b	0.12435051
178	0x3d2b80f9	0.041871045
179	0xbdc1eb44	-0.094687015
180	0xbdabafd9	-0.0838315
181	0xbbd1cb87	-0.006402436
182	0x3e6888fd	0.22708507
183	0x3b5e9c5d	0.0033967711
184	0x3d57db8a	0.052699603
185	0x3ccb84ca	0.024843592
186	0x3dab0d66	0.08352165
187	0x3f78eba4	0.9723456
188	0xbf45170d	-0.769883
189	0xbe36340f	-0.17793296
190	0xbe8f53bb	-0.2799357
191	0xbe964a5f	-0.29353616
192	0xbe2e6d85	-0.17033966
193	0xbebc2e57	-0.36754104
194	0x3e9c2258	0.30494952
195	0x3c170195	0.009216686
196	0x3e1d20ae	0.15344498
197	0xbdf0c110	-0.11755574
198	0xbd057227	-0.032579567
199	0x3cb8df7d	0.022567505
200	0x3ebaa65d	0.3645505
201	0x3e90e6b2	0.28301007
202	0x3e38a5d5	0.1803201
203	0xbe3c8f6b	-0.18414085
204	0x3bbee312	0.0058254087
205	0xbe4ff5d7	-0.20308624
206	0x3e0a2b96	0.13493189
207	0x3e80d12b	0.25159582
208	0x3eba149c	0.3634385
209	0x3c9cf0ff	0.019157885
210	0x3a8bb2aa	0.0010658104
211	0x3d1cc34b	0.038272183
212	0xbdf7fffd	-0.12109373
213	0xbeaa3654	-0.33244574
214	0x3d17c235	0.037050445
215	0xbe58bd66	-0.21166
216	0x3d7956bb	0.06087373
217	0xbd229faa	-0.03970305
218	0x3e124c7e	0.14286992
219	0xbda0c9bc	-0.07850978
220	0x3e4a75a4	0.19771439
221	0xbdf2456b	-0.11829647
222	0x3e046ed8	0.12932909
223	0x3e896e01	0.2684174
224	0x3eb491e4	0.35267556
225	0x3e1b6288	0.15174305
226	0x3e2aa642	0.16664985
227	0xbcc3c12f	-0.023895828
228	0xbe41dc5d	-0.18931718
229	0x3c660b99	0.014040851
230	0xbe68f3ac	-0.22749203
231	0xbcefc7b3	-0.029270029
232	0x3ceadeef	0.028670756
233	0x3ecc2618	0.39872813
234	0x3e1696a1	0.14705898
235	0xbd959ae9	-0.073049374
236	0xbcd9037b	-0.026490917
237	0x3e5da61d	0.21645398
238	0x3e3cfe3f	0.18456362
239	0x3ef0c85c	0.47027862
240	0xbe132ec1	-0.14373304
241	0x3d20c3b5	0.03924914
242	0x3e233314	0.15937454
243	0x3d1422e6	0.036166094
244	0xbd833ebf	-0.06408452
245	0xbde909a0	-0.11378789
246	0x3d553928	0.05205646
247	0xbe44022c	-0.19141454
248	0x3dd4fd6d	0.103999
249	0x3d68fa54	0.056879357
250	0xbd600a6a	-0.05469743
251	0xbdd0c697	-0.10194128
252	0x3eb7f56a	0.35929424
253	0x3e0cfed1	0.1376908
254	0xbdc31d24	-0.095270425
255	0x3e3d5db7	0.1849278

fch.1.0.bias f4 [32]
0	0x3dd610f8	0.10452455
1	0xbe108557	-0.14113365
2	0xbe12eb19	-0.14347495
3	0x3e52b606	0.20577249
4	0x3e02e6b9	0.12783326
5	0xbdb2343b	-0.087013684
6	0xbe020145	-0.12695797
7	0xbe24d866	-0.16098174
8	0x3e4d873d	0.2007112
9	0xbe08b260	-0.13349295
10	0xbdd9d9c0	-0.10637236
11	0x3e37d17e	0.17951009
12	0x3e323305	0.17402275
13	0xbd896c26	-0.06710081
14	0xbcef9405	-0.029245386
15	0xbd91e5fb	-0.071239434
16	0xbd8a65cf	-0.067577
17	0x3c04303f	0.008068143
18	0x3d1958a6	0.037438057
19	0x3d9cef83	0.07662871
20	0x3e534c78	0.2063464
21	0xbd18fdba	-0.037351348
22	0xbe521cd1	-0.20518805
23	0xbe6e6273	-0.23279743
24	0x3d2b8f63	0.04188479
25	0x3d051115	0.032486994
26	0xbdc4a0d0	-0.09600985
27	0xbd7c0b1d	-0.061534036
28	0x3d6073f6	0.05479809
29	0x3e344db8	0.17607772
30	0x3dc8dfd4	0.09808317
31	0xbd9bd1d9	-0.07608385

fce.weight f4 [1, 32]
0	0xbbb7a3b7	-0.005604233
1	0xbe228904	-0.1587258
2	0x3eda730e	0.42665905
3	0x3e3ec9c8	0.18631661
4	0xbed34532	-0.4126373
5	0x3f009787	0.5023121
6	0xbe894ee1	-0.26817992
7	0xbf6b3f23	-0.91893214
8	0xbe924c18	-0.2857368
9	0x3eba5504	0.36392987
10	0xbe5c692e	-0.21524498
11	0xbf222400	-0.6333618
12	0x3e9759e0	0.29560757
13	0xbe8570d6	-0.2606265
14	0x3eee13f7	0.46499607
15	0x3ed7a772	0.42119938
16	0x3eb43cef	0.3520274
17	0xbe274eaa	-0.16338602
18	0x3ee3e512	0.44510704
19	0xbe8d21d1	-0.27564862
20	0x3f59892c	0.8497493
21	0xbe958662	-0.29204088
22	0x3eb94eb3	0.36192855
23	0x3e8323a9	0.25613144
24	0xbea06505	-0.31327072
25	0x3efb5122	0.49085337
26	0xbf0fdd89	-0.5619741
27	0xbf302403	-0.6880495
28	0x3dd1ec93	0.10250201
29	0x3e43ab88	0.19108403
30	0xb7d4d79a	-2.5372767e-05
31	0x3e01817e	0.12647054
