models/PINN_Pendulum_w0_1.pth (torch, 12228 bytes, 7 tensors)

fcs.0.weight f4 [32, 1]
0	0xbf0cce1f	-0.55002016
1	0x3c20598c	0.009786975
2	0xbf652daa	-0.895228
3	0x3f36b680	0.7137222
4	0xbfb6d1e2	-1.4282801
5	0x3f8b4b79	1.0882407
6	0xbf95efec	-1.1713843
7	0xbf97a956	-1.1848552
8	0xbf83a0ac	-1.0283408
9	0x3f56525c	0.8371942
10	0xbf3a5757	-0.7278952
11	0x3f7fc514	0.9991009
12	0xbf9a1077	-1.2036275
13	0xbf7881a9	-0.97072846
14	0xbf05d02a	-0.5227076
15	0xbf0e83ad	-0.5566967
16	0xbf8d96c0	-1.106163
17	0x3f8320df	1.0244406
18	0xbf12854a	-0.5723463
19	0x3e954a04	0.29158032
20	0x3f87bd82	1.0604708
21	0x3f01480b	0.50500554
22	0x3f25ca45	0.64761764
23	0x3fa86488	1.315568
24	0xbf248cef	-0.6427755
25	0xbebfd2d8	-0.3746555
26	0xbf456375	-0.77104884
27	0x3f857b43	1.0428241
28	0x3f97f869	1.1872684
29	0xbf930756	-1.1486614
30	0x3f90cdb9	1.1312782
31	0x3f62e46f	0.8862981

fcs.0.bias f4 [32]
0	0x3ed65c63	0.4186736
1	0xba7eb649	-0.00097164937
2	0x3f4babda	0.795591
3	0xbe798ebe	-0.24370858
4	0xbf13bf26	-0.57713544
5	0xbea54b64	-0.3228408
6	0xbef4ea66	-0.47835082
7	0x3e0ab085	0.135439
8	0xbdeb2ca5	-0.11483125
9	0xbee064c2	-0.43826872
10	0xbba5c639	-0.0050590304
11	0x3f614a0c	0.8800361
12	0x3bc00f15	0.005861173
13	0x3d9dc3d8	0.0770337
14	0xbc835343	-0.016030913
15	0x3e535f3c	0.20641798
16	0x3f79b049	0.97534615
17	0x3ee09ee0	0.43871212
18	0x3eb1e245	0.34742942
19	0xbd346f24	-0.044051304
20	0x3e01f6b3	0.12691765
21	0x3eae994f	0.3410134
22	0xbe383d72	-0.1799219
23	0xbf4de013	-0.80420035
24	0xbedd9e57	-0.43284866
25	0x3f4176ee	0.755721
26	0x3e40a4b3	0.18812828
27	0xbf2fa887	-0.6861653
28	0x3daab942	0.083361164
29	0x3f8df0b9	1.1089088
30	0xbf80e313	-1.0069298
31	0xbf181bae	-0.59417236

fch.0.0.weight f4 [32, 32]
0	0xbca5bdee	-0.020232167
1	0xbc87fb73	-0.016599393
2	0xbb92aa11	-0.00447584
3	0xbe942325	-0.28933063
4	0xbe066044	-0.1312266
5	0xbe0f497c	-0.13992876
6	0x3e492e1f	0.196465
7	0x3e81d983	0.2536126
8	0xbd44601b	-0.047943216
9	0xbe666d4b	-0.2250263
10	0x3e38a53b	0.1803178
11	0xbce89f32	-0.028396223
12	0x3e2acd56	0.16679892
13	0xbcfbc929	-0.03073557
14	0x3d88e893	0.06684985
15	0x3e908f83	0.2823449
16	0x3e133dbf	0.14379023
17	0xbd1fc812	-0.03900916
18	0x3db6aa79	0.08919234
19	0xbd85ef81	-0.06539822
20	0xbe2e5197	-0.17023312
21	0xbdeabf17	-0.11462229
22	0xbec49e00	-0.38401794
23	0x3d93e2ae	0.0722097
24	0x3e0a88db	0.13528769
25	0x3d4b3b71	0.049617235
26	0x3dacedae	0.08443771
27	0x3d8c14a4	0.068398744
28	0xbcbc1351	-0.02295843
29	0x3e4fd325	0.20295389
30	0xbdfa34a8	-0.12217075
31	0xbc8ee656	-0.017443817
32	0x3e4fad06	0.20280847
33	0x3dc7be12	0.0975305
34	0x3e0e40ff	0.13891982
35	0xbe8ebf5e	-0.27880377
36	0x3e5fe722	0.21865514
37	0xbefb06ec	-0.49028718
38	0x3dc93a7c	0.09825608
39	0x3e9a9495	0.30191484
40	0x3e0223d5	0.12708981
41	0xbdcf1bcc	-0.10112724
42	0x3e2f79d7	0.17136322
43	0x3df99a0e	0.12187587
44	0x3eb2dc8f	0.34933898
45	0x3e9f4056	0.31103772
46	0x3e707fa6	0.23486194
47	0x3c70445e	0.0146647375
48	0x3dab7b51	0.0837313
49	0xbdd11e03	-0.102108024
50	0xbc1a03aa	-0.009400288
51	0xbd21f69c	-0.039541826
52	0xbe9a5c6d	-0.3014864
53	0xbce4d0c2	-0.027931575
54	0xbe34ab48	-0.17643464
55	0x3e1abcca	0.1511108
56	0xbb1c8a36	-0.002388609
57	0x3d1bbb27	0.03802028
58	0x3f0e9cd2	0.5570804
59	0xbdb52837	-0.08845561
60	0xbd1f55ff	-0.03890037
61	0xbdabc5b4	-0.08387318
62	0x3dbaa47e	0.09113406
63	0x3d693dad	0.056943584
64	0x3d85ab70	0.0652684
65	0x3e1c4440	0.1526041
66	0xbd964060	-0.07336497
67	0xbe78e4a3	-0.24305968
68	0x3d8891e4	0.066684514
69	0xbecc682b	-0.39923224
70	0x3cac4fc3	0.021034127
71	0x3da51a87	0.080617
72	0x3e37e53e	0.17958543
73	0xbd7809d2	-0.06055624
74	0x3e02d6ef	0.12777303
75	0xbddd4558	-0.10804242
76	0x3e06332d	0.1310546
77	0x3dffc69a	0.12489052
78	0x3e0cd96d	0.13754816
79	0x3ea1ab0a	0.31575805
80	0x3d68273f	0.056678053
81	0xbe1206f6	-0.14260468
82	0xbdd9d0d5	-0.10635535
83	0xbc8fd8ba	-0.017559398
84	0xbe6771f1	-0.22602059
85	0xbe443c5c	-0.1916365
86	0xbec3e9da	-0.38264352
87	0xbdfa8a64	-0.12233427
88	0x3d8bb68f	0.0682193
89	0x3da3f9d4	0.08006635
90	0x3e8f5dc9	0.2800124
91	0x3daa5051	0.083161004
92	0xbe5ec8e9	-0.21756329
93	0x3d89c172	0.0672635
94	0xbe3979cc	-0.18112868
95	0x3db7e5b7	0.089793615
96	0xbf0c521c	-0.5481279
97	0x3d0abb92	0.033870287
98	0xbf346fda	-0.7048317
99	0x3f3510a3	0.7072851
100	0x3efb1ad7	0.49043915
101	0x3f1844b3	0.59479827
102	0x3eaff0ae	0.34363312
103	0x3d8ebd5d	0.06969712
104	0x3e9885b4	0.29789507
105	0x3f159d40	0.5844307
106	0xbb990a9a	-0.0046704533
107	0xbf025540	-0.5091133
108	0x3de9f2a2	0.11423232
109	0xbd496c6d	-0.04917567
110	0xbd8f0eb5	-0.06985227
111	0xbf31a2e5	-0.6938918
112	0xbf4b9573	-0.79524916
113	0xbebc7970	-0.368114
114	0xbee9c3ce	-0.456572
115	0x3d9f6e82	0.077847496
116	0xbe54a1a0	-0.2076478
117	0xbe94df24	-0.29076493
118	0x3f23eb05	0.64030486
119	0x3e9b0fb6	0.30285424
120	0x3e2b5b9e	0.16734168
121	0xbeda95db	-0.42692456
122	0xbf012209	-0.5044256
123	0x3f1f7429	0.6228662
124	0xbd6f1b89	-0.05837587
125	0xbf6a356d	-0.9148777
126	0x3f048e40	0.51779556
127	0x3ec8fa76	0.39253587
128	0x3bfafa1d	0.0076592104
129	0x3e519e64	0.20470577
130	0xbe20b5c2	-0.15694335
131	0x3e47d385	0.19514282
132	0xbafa7007	-0.0019106873
133	0x3d8dc0c0	0.0692153
134	0x3db107dc	0.08644077
135	0xbdaa9983	-0.08330061
136	0xbe0c2323	-0.13685279
137	0x3d9764cc	0.07392272
138	0xbd99b742	-0.07505657
139	0x3c21972a	0.0098627005
140	0xbe653e3b	-0.2238702
141	0xbe12230c	-0.14271182
142	0xbdd8d39d	-0.10587237
143	0xbe2d6a43	-0.16935067
144	0xbdaa73a8	-0.08322841
145	0x3e3c728e	0.18403074
146	0xbd9e9477	-0.07743161
147	0x3d665576	0.056233846
148	0x3e1cc308	0.15308774
149	0xbcac06e3	-0.020999378
150	0x3ea8e158	0.32984424
151	0x3caf01c6	0.02136315
152	0x3be05020	0.006845489
153	0xbd101c0a	-0.03518299
154	0xbe5a6395	-0.2132705
155	0x3d9a7ccc	0.07543334
156	0xbd7c910d	-0.06166177
157	0xbe52a537	-0.20570837
158	0x3df0550d	0.11734972
159	0xbc12fbca	-0.008971164
160	0x3bd0f5fb	0.0063769794
161	0xbe3dbd3d	-0.1852922
162	0xbe305cdc	-0.17222923
163	0x3e704fa1	0.23467876
164	0x3dc2b9cf	0.095080964
165	0x3ea01dcb	0.3127273
166	0xbc511c18	-0.012763046
167	0xbe048269	-0.12940373
168	0xbe1889ad	-0.14896269
169	0x3e19a75a	0.15005246
170	0xbd0d142e	-0.034443073
171	0xbe19b28f	-0.15009521
172	0x3d11f3b1	0.035632793
173	0xbdb50269	-0.0883835
174	0xbe3d3ee7	-0.18481027
175	0xbdd7d84c	-0.10539302
176	0xbc369143	-0.0111430315
177	0xbd4eba82	-0.050470836
178	0xbe56ded7	-0.20983444
179	0x3aa59ce2	0.0012635256
180	0x3e0e51b6	0.13898358
181	0x3e15e0da	0.14636555
182	0x3e6007fb	0.21878044
183	0x3cce6043	0.025192386
184	0x3e1f171f	0.15536164
185	0x3d516e32	0.05113048
186	0xbda69ede	-0.0813577
187	0x3c75aee0	0.014995307
188	0x3e29ff2b	0.16601245
189	0xbe8a79de	-0.27046102
190	0x3dc04425	0.093879975
191	0x3dcdbfb6	0.100463316
192	0x3d60457e	0.054753773
193	0xbe3ef92a	-0.18649736
194	0x3e0a65fa	0.13515463
195	0xbd937d5f	-0.07201647
196	0x3cc4e1b3	0.024033403
197	0xbea3a203	-0.31959543
198	0x3d6b968b	0.057516616
199	0x3f0e2b81	0.5553513
200	0x3eb23050	0.34802485
201	0x3ce4a657	0.027911348
202	0x3e9de9c5	0.30842414
203	0xbdfcdca8	-0.12346774
204	0x3ed3d674	0.41374552
205	0x3eb6c4f4	0.35697138
206	0x3e0b2b85	0.1359082
207	0x3e49c322	0.19703344
208	0x3d3e0a87	0.04639676
209	0xbe4d6895	-0.20059426
210	0xbd42e474	-0.04758115
211	0xbe8738fb	-0.2641066
212	0xbe93ba69	-0.28853157
213	0xbe48e42f	-0.19618295
214	0xbeafe35b	-0.34353146
215	0xbe426e2a	-0.18987337
216	0x3e851a4c	0.25996625
217	0xbe812b64	-0.25228417
218	0x3f085985	0.53261596
219	0xbdf96b0b	-0.1217862
220	0xbe936482	-0.2878762
221	0x3e28ec79	0.16496457
222	0x3d94b64f	0.07261335
223	0xbd4b4d0d	-0.04963403
224	0x3c8e9bf8	0.017408356
225	0xbd385128	-0.04499927
226	0x3e8c37c8	0.27386308
227	0xbedcdfd7	-0.43139526
228	0x3dd27681	0.10276509
229	0xbebe516a	-0.3717149
230	0xbd7d8aa9	-0.061899815
231	0x3e451996	0.19248042
232	0xbcbd0a62	-0.02307624
233	0xbe0fbea0	-0.14037561
234	0x3e1d6b42	0.15372947
235	0x3ded8630	0.1159786
236	0x3cf1079f	0.02942258
237	0x3e21e27d	0.15809055
238	0x3e216075	0.15759452
239	0x3e923ffa	0.28564435
240	0x3dc88b06	0.097921416
241	0x3dbf3a40	0.09337282
242	0x3e0c74d6	0.13716444
243	0xbe0715d8	-0.13191926
244	0xbd8940fa	-0.067018464
245	0x3df9bce4	0.12194231
246	0xbeab52f4	-0.33461726
247	0xbda00593	-0.07813563
248	0xbe138bc6	-0.14408788
249	0x3e6d4d98	0.23174131
250	0x3e0a665b	0.13515608
251	0xbddf1880	-0.10893345
252	0xbdc8bbd1	-0.09801448
253	0x3db7acc5	0.089685
254	0xbd8a89dd	-0.067645766
255	0xbe4b1a5e	-0.19834277

fch.0.0.bias f4 [32]
0	0xbe220c4b	-0.15825002
1	0x3db0b700	0.086286545
2	0xbe12580f	-0.14291404
3	0xbed59e86	-0.41722506
4	0x3e23cf9e	0.15997168
5	0x3b5efaba	0.0034023956
6	0x3d00bd43	0.031430494
7	0x3cb76c53	0.02239052
8	0x3e24b5e0	0.16085005
9	0xbe1ec58c	-0.15505046
10	0x3ce66515	0.028124372
11	0xbe0266ea	-0.12734571
12	0xbd48e760	-0.04904878
13	0x3e0a46e8	0.13503611
14	0xbe6fb135	-0.23407443
15	0x3dc5aa80	0.09651661
16	0x3d5d7d72	0.054074712
17	0xbd5d2f1f	-0.054000016
18	0x3e13deff	0.14440535
19	0x3e0c1ada	0.13682118
20	0xbe79ade8	-0.24382746
21	0x3cde66aa	0.027148563
22	0x3db12761	0.08650089
23	0xbe3baa09	-0.18326582
24	0x3df2ef2f	0.11862027
25	0x3ddec524	0.10877445
26	0x3dcaebe5	0.099082746
27	0xbe509502	-0.20369342
28	0x3dc9ba89	0.09850032
29	0x3e6d6b05	0.23185356
30	0x3e031cdc	0.12803978
31	0x3e3af2de	0.18256709

fch.1.0.weight f4 [32, 32]
0	0x3d8b0925	0.067888536
1	0x3dac92a7	0.08426409
2	0x3babf030	0.0052471384
3	0xbd5c514f	-0.05378848
4	0x3e282731	0.164212
5	0x3c286e4d	0.010280204
6	0x3e3aced4	0.18242961
7	0x3c9f81ea	0.019471128
8	0xbcb9d612	-0.022685084
9	0x3c50577a	0.012716169
10	0xbdfe60e4	-0.12420824
11	0x3e201e0c	0.15636462
12	0x3e19af1a	0.15008202
13	0xbe29d29d	-0.16584249
14	0x3dfcb2fe	0.123388276
15	0xbd1a32f8	-0.037646264
16	0xbe05316d	-0.13007136
17	0xbe129d1d	-0.14317746
18	0x3e4e9fa1	0.20178081
19	0xbdd42507	-0.10358625
20	0xbe43943a	-0.19099513
21	0x3dd17ed7	0.10229271
22	0xbd6f6c9a	-0.05845318
23	0xbdc09eb0	-0.09405267
24	0x3e0a139d	0.13484044
25	0xbca0fcc3	-0.019651776
26	0xbcad8b0b	-0.021184465
27	0xbda100cd	-0.07861481
28	0x3e165206	0.14679727
29	0xbe2410e3	-0.16022067
30	0xbda70e43	-0.08157017
31	0xbcdc59fd	-0.026898379
32	0x3e4f0e43	0.20220284
33	0x3d08ae6a	0.03336946
34	0x3e9cf743	0.30657396
35	0x3e40f1c9	0.18842234
36	0xbdab831f	-0.08374619
37	0x3d2ef471	0.042713586
38	0x3e4d2ed0	0.20037389
39	0xbe7053f6	-0.23469529
40	0xbe048856	-0.12942633
41	0x3e9ed1f6	0.31019562
42	0x3e03bec2	0.12865737
43	0xbcdc3b14	-0.02688364
44	0x3e326322	0.17420629
45	0xbe22fecd	-0.15917511
46	0x3e936b07	0.28792593
47	0xbdf05c6b	-0.11736377
48	0x3ea53aa2	0.32271296
49	0x3d683249	0.05668858
50	0xbeaf2296	-0.34206074
51	0xbdf66d58	-0.120325744
52	0x3e058905	0.1304055
53	0x3eea8a51	0.45808652
54	0xbe1df5be	-0.15425774
55	0x3ef93293	0.48671398
56	0x3de1ecda	0.11031504
57	0xbdeae8d1	-0.114701875
58	0xbe63a642	-0.22231391
59	0x3e3a78da	0.18210164
60	0xbe7902b5	-0.24317439
61	0xbd3de303	-0.046359073
62	0xbdfac422	-0.122444406
63	0xbe1a0c9a	-0.1504387
64	0xbd58b513	-0.05290706
65	0x3d87c310	0.06629002
66	0xbdf35064	-0.11880568
67	0x3f0f29cc	0.5592315
68	0x3d3b2a58	0.04569468
69	0xbdaa1024	-0.0830386
70	0x3c88dee9	0.016707854
71	0x3d215197	0.03938445
72	0x3e1b30f7	0.15155397
73	0xbd3cb537	-0.046071257
74	0x3c9ac640	0.018893361
75	0x3e0511f6	0.12995133
76	0xbd2c943e	-0.042133562
77	0x3cea2fbb	0.028587213
78	0xbd892b5b	-0.066977225
79	0x3d6a2bc7	0.057170656
80	0xbe5f36f1	-0.21798302
81	0x3d315172	0.043290563
82	0xbe2136b2	-0.15743521
83	0x3d5d524d	0.054033566
84	0x3e3a102f	0.18170236
85	0x3e402ba9	0.18766655
86	0xbe1ef1b3	-0.15521888
87	0xbd891971	-0.06694306
88	0x3d671095	0.0564123
89	0xbe25933a	-0.16169444
90	0xbd7c9deb	-0.06167404
91	0x3c79d5ee	0.015248759
92	0xbe46617d	-0.19373126
93	0xbe75d61b	-0.24007456
94	0xbe268865	-0.16262968
95	0xbe760a61	-0.24027397
96	0x3d4e9974	0.050439313
97	0x3e805040	0.25061226
98	0x3defd9f0	0.1171149
99	0xbe15afa5	-0.14617784
100	0x3d11ede4	0.03562726
101	0x3e325b2c	0.17417592
102	0x3e0080f7	0.12549196
103	0x3d998041	0.074951656
104	0x3d8424dd	0.064523436
105	0x3e1035d0	0.14083028
106	0x3def75cf	0.11692392
107	0x3c788968	0.015169479
108	0xbdc85a93	-0.09782901
109	0xbda0898b	-0.07838734
110	0x3e807de1	0.25096038
111	0x3d04b235	0.032396514
112	0xbeba563b	-0.36393914
113	0xbea91893	-0.3302656
114	0xbe865b46	-0.2624151
115	0xbe11fa19	-0.14255561
116	0x3da869c0	0.08223295
117	0x3e856052	0.2605005
118	0xbdb72a15	-0.089435734
119	0x3e235154	0.15948993
120	0xbe97c0c2	-0.2963925
121	0xbe6d4c23	-0.23173575
122	0xbdb84452	-0.08997406
123	0x3de24195	0.11047665
124	0xbe01ac8d	-0.12663479
125	0xbe0de1fd	-0.13855739
126	0x3cb2b6ea	0.021815736
127	0xbdba8c37	-0.09108775
128	0xbdd48531	-0.10376967
129	0xbe41bad4	-0.18918926
130	0xbe234c5a	-0.15947095
131	0x3e3d8c25	0.18510492
132	0xbddc874c	-0.10767993
133	0xbccf7ab3	-0.025327062
134	0xbdf33a5a	-0.11876364
135	0xbdce682d	-0.10078464
136	0x3dac62d5	0.08417288
137	0xbd4148d7	-0.047188606
138	0x3dda28e4	0.106523305
139	0x3e1484fe	0.14503857
140	0xbcd15be6	-0.025556516
141	0xbd14c511	-0.03632075
142	0xbd3c2c0b	-0.04594044
143	0x3de965a3	0.11396339
144	0x3ef2f471	0.4745212
145	0x3e71cfd0	0.2361443
146	0xbb961455	-0.0045800605
147	0x3e76a776	0.24087319
148	0xbe2c6a6f	-0.16837476
149	0xbe5690f7	-0.20953737
150	0xbd62e0b1	-0.055390064
151	0xbe1008dd	-0.14065881
152	0x3d2e8541	0.04260755
153	0x3e166aab	0.14689128
154	0x3e185e1f	0.14879654
155	0x3d46a680	0.04849863
156	0x3d8a362c	0.06748614
157	0x3e01db8d	0.12681408
158	0xbe44428a	-0.19166008
159	0x3d784368	0.06061116
160	0xbed3abd2	-0.41342026
161	0xbece7c09	-0.40329006
162	0xbf25e955	-0.6480916
163	0xbe980843	-0.29693803
164	0x3de01567	0.10941582
165	0xbe83751e	-0.2567529
166	0xbecb7057	-0.39734146
167	0x3e4dc513	0.20094709
168	0x3ea5cc4e	0.32382435
169	0xbecbd1c4	-0.39808476
170	0xbe728996	-0.23685297
171	0x3c383b5b	0.01124462
172	0xbeedbcd1	-0.46433118
173	0x3deb5c9f	0.114922754
174	0xbf073a79	-0.528236
175	0x3c88f5c9	0.016718762
176	0xbedf8e86	-0.43663424
177	0x3e3ae9ad	0.18253203
178	0x3ee09e4d	0.43870774
179	0x3d324988	0.043527156
180	0xbeb90e2f	-0.36143634
181	0xbf1edbad	-0.6205395
182	0x3e97035d	0.29494753
183	0xbf69f62f	-0.9139127
184	0x3dc9de4a	0.098568514
185	0x3eda8ac5	0.42683998
186	0x3eb7c2e6	0.35890883
187	0xbd8467a9	-0.06465084
188	0x3d43173a	0.047629572
189	0x3e6e8bb9	0.23295487
190	0x3de27c82	0.11058904
191	0x3e523cb4	0.20530969
192	0xbcba2ce4	-0.022726484
193	0xbdf7a74d	-0.12092457
194	0x3dc92cf2	0.09823026
195	0xbcf2141c	-0.029550605
196	0x3dfa447d	0.12220094
197	0xbd1cbb92	-0.03826482
198	0xbc07a84e	-0.008279873
199	0x3db7f799	0.089827724
200	0x3e21b673	0.15792255
201	0x3e4d28de	0.20035121
202	0x3e11f984	0.14255339
203	0xbe036817	-0.12832676
204	0x3cd7a9f2	0.026326153
205	0xbe3d2e36	-0.1847466
206	0x3e5d1287	0.21589099
207	0x3d97fe9f	0.07421612
208	0xbd8f94f7	-0.07010835
209	0x3dc239d7	0.09483688
210	0x3d13063c	0.035894617
211	0x3de44522	0.111459985
212	0xbc352f46	-0.011058634
213	0xbd8dee11	-0.06930173
214	0xbd469c00	-0.048488617
215	0xbe3ab5a6	-0.18233356
216	0x3e0faa0f	0.14029716
217	0xbc87580d	-0.016521478
218	0x3de94fb5	0.11392156
219	0xbddc7700	-0.10764885
220	0xbe156a95	-0.14591439
221	0xbdbd2320	-0.09235215
222	0x3c2d7845	0.0105877565
223	0xbceb4d78	-0.028723463
224	0x3f16e357	0.58940643
225	0x3d04dfa4	0.032439843
226	0x3ad7b7bf	0.0016457959
227	0xbfaac7a2	-1.3342173
228	0xbef39ed4	-0.47582114
229	0xbe3dfd50	-0.18553662
230	0xbe99c78a	-0.3003505
231	0x3f138d1b	0.57637185
232	0x3e219a00	0.15781403
233	0x3e29f667	0.16597901
234	0x3e951591	0.29118016
235	0xbe9b89c0	-0.30378532
236	0xbeb164ba	-0.3464716
237	0xbe14eec7	-0.14544211
238	0x3e516666	0.20449218
239	0xbdbf263f	-0.09333467
240	0x3da96d01	0.08272744
241	0x3e835b14	0.25655425
242	0x3c5d1366	0.0134933945
243	0x3d7d4f0e	0.06184297
244	0xbf090a25	-0.53531104
245	0xbe028916	-0.12747607
246	0xbd23bc6f	-0.039974626
247	0xbe72c5f4	-0.23708326
248	0x3e9f26bf	0.31084248
249	0x3db21186	0.086947486
250	0xbe48dab8	-0.19614685
251	0xbf0ba965	-0.5455535
252	0x3d7f18a7	0.06227937
253	0x3eab5391	0.33462194
254	0x3e117e77	0.14208399
255	0x3eb3681f	0.35040376

fch.1.0.bias f4 [32]
0	0x3e415ae0	0.18882322
1	0xbe486328	-0.19569075
2	0xbe2232ed	-0.15839739
3	0x3dfb447c	0.12268922
4	0x3e218114	0.15771896
5	0x3e8fa045	0.28051963
6	0xbe15a7ef	-0.14614843
7	0xbe4e54d8	-0.20149553
8	0x3e1077ed	0.14108248
9	0xbce03b07	-0.027371896
10	0xbe191be8	-0.14952052
11	0xbc15c116	-0.009140274
12	0x3e436624	0.19081932
13	0xbd6a00eb	-0.05712978
14	0xbda28af3	-0.07936659
15	0xbdaf8d4f	-0.08571874
16	0xbdb92822	-0.09040858
17	0xbd0a0570	-0.03369659
18	0xbd0f6204	-0.035005584
19	0x3ddef95c	0.10887405
20	0xbe3e90e9	-0.18609966
21	0xbc211362	-0.009831281
22	0xbe66134a	-0.22468296
23	0xbe49d094	-0.19708472
24	0x3d40b239	0.047044966
25	0x3c4146dd	0.01179668
26	0xbdfbb332	-0.12290038
27	0x3d601d96	0.054715715
28	0x3d9a55b3	0.07535877
29	0x3dd15167	0.102206044
30	0x3e11aa59	0.14225139
31	0xbe91f744	-0.2850896

fce.weight f4 [1, 32]
0	0x3816d94a	3.5965153e-05
1	0xbe9d87ca	-0.3076766
2	0x3dc2ce4b	0.095120035
3	0x3e45d033	0.19317703
4	0xbe1c6022	-0.15271047
5	0x3e092c35	0.1339577
6	0x37193f31	9.134224e-06
7	0x3eb9ad60	0.36265087
8	0xbe797681	-0.24361612
9	0x3e817e6a	0.2529176
10	0xbdeb5b3f	-0.11492013
11	0x3ee30136	0.4433686
12	0x3d9c93c0	0.076453686
13	0xbeaf0e8c	-0.34190786
14	0xbb5efab0	-0.0034023933
15	0xb9894416	-0.00026181404
16	0x3c0e6e7d	0.008693335
17	0xbcd5ec65	-0.026113698
18	0xba10542c	-0.00055057066
19	0xbe58ee9b	-0.21184771
20	0xbeb2d50b	-0.34928164
21	0xbb952326	-0.004551309
22	0xbe0abbbe	-0.1354818
23	0xbd2db1f1	-0.042406026
24	0xbe604e20	-0.21904802
25	0x3e1ce8aa	0.1532313
26	0x3ba3f7c0	0.0050038993
27	0xbe08c794	-0.13357383
28	0xb90087bd	-0.00012257598
29	0x3e9cf3e7	0.30654833
30	0x3eb3762d	0.35051098
31	0x3ea009c4	0.3125745
