models/PINN_Pendulum_w0_3_25.pth (torch, 12328 bytes, 7 tensors)

fcs.0.weight f4 [32, 1]
000000 5c a9 db bf 0f 45 65 bf 9b 28 b6 bf dd c1 ef 3f
       -1.7161059 -0.895585 -1.4231142 1.8731037
000010 2f a3 93 c0 dc 71 3d 40 f8 0c 02 c0 0b 8e d3 bf
       -4.61367 2.9600744 -2.0320415 -1.6527723
000020 ad 6e da bf e2 c7 d4 3f 20 bd 74 bf f4 0a 0e 3e
       -1.7065026 1.6623499 -0.9560108 0.13871366
000030 bc 9c e8 bf ec 5f ba bf 2f 11 5b bf fe 3e be bf
       -1.8172832 -1.4560523 -0.85573095 -1.4862974
000040 a0 c9 e0 bf 3b 2b aa 3f c2 21 a0 bf b2 b2 9d 3d
       -1.7561531 1.3294443 -1.2510302 0.07700099
000050 0b 46 09 40 45 e3 80 bf b4 34 bb 3f 80 fe 32 40
       2.1449 -1.0069357 1.4625459 2.7967834
000060 a5 f8 27 bf d1 39 6b bf 1c 4e 99 bf 00 6b c3 3f
       -0.65613776 -0.91885096 -1.1976962 1.5267029
000070 d4 e7 ee 3f d2 9b c8 bf 64 33 1e 40 54 a9 c4 3f
       1.8664498 -1.5672553 2.4718866 1.5364175

fcs.0.bias f4 [32]
000000 7c 20 78 3f 50 d7 02 3f ee e8 63 3f de 58 04 be
       0.9692457 0.5110979 0.890273 -0.12924525
000010 08 d7 57 3e ee 28 19 be 32 4a 30 bf c4 16 17 3e
       0.21078122 -0.1495702 -0.68863213 0.14754778
000020 8d ae 95 bd 06 24 0b bf 6c 32 1f 3e 81 06 32 3f
       -0.073086835 -0.5435184 0.15546578 0.69541174
000030 ac 03 de 3d d2 fa e5 3d de 4a 0a 3e fc 53 52 3e
       0.10840544 0.11229481 0.13505122 0.2053985
000040 0a 47 c1 3f 39 22 b1 3d 70 be 23 3f cc 45 d7 bd
       1.5099804 0.086491056 0.6396246 -0.105113596
000050 55 ad 20 be 07 39 b2 3e 12 8b 02 bf 9e ed 3e c0
       -0.15691121 0.34809133 -0.50993454 -2.983253
000060 f6 6f 04 bf e5 96 24 3f f7 1d a2 3e ac fe 47 bf
       -0.5173334 0.64292747 0.31663486 -0.78122973
000070 e0 d8 8b bc 58 6e 9d 3f 48 c3 17 c0 ef 91 8c bf
       -0.017071187 1.2299299 -2.371294 -1.0982035

fch.0.0.weight f4 [32, 32]
000000 65 5f 54 be 3a 88 f6 bc ea 2a 97 bd 09 32 5f 3e
       -0.20739515 -0.030094255 -0.07381232 0.2179643
000010 9f 0e ee be c0 92 c1 3e ac fd 66 3d 1e 35 ce bd
       -0.4649553 0.37807274 0.056394264 -0.10068725
000020 d3 7f 96 be 8f 05 b2 bc ed 12 bc bd 0c 7a fa 3c
       -0.29394397 -0.021731166 -0.09183297 0.030575775
000030 d4 00 08 be 28 cb b9 be 31 f0 16 be 17 8e cc bc
       -0.13281566 -0.36287808 -0.14740063 -0.024970097
000040 97 0b 06 3c 11 46 04 3e be 01 4c bd c8 0a 03 3d
       0.008181474 0.12917353 -0.04980635 0.031992704
000050 5a 81 d5 3d e0 b4 b3 bd 71 0c 6e 3d dc 57 38 3e
       0.104250625 -0.087747335 0.058117334 0.18002266
000060 5c a1 2a 3d 41 5d 5b 3d 16 0e b1 be 71 51 50 3e
       0.04165779 0.05355573 -0.3458106 0.20343567
000070 f5 d4 67 3e af 4e 8c 3d 18 d7 3a bd 2b c7 b1 3d
       0.2263983 0.06850945 -0.045615286 0.086805664
000080 ca 05 8f 3f 3b 07 51 3e e3 4e e2 3e 82 23 b4 bf
       1.1173642 0.20412914 0.4420081 -1.4073336
000090 e8 35 88 3f 7b 20 bf bf 3c 25 88 3e 82 40 41 3f
       1.0641451 -1.4931787 0.26590908 0.75489056
0000a0 d2 03 04 3f 7c 0c 27 bf c9 40 12 3f 7f 8e ee 3d
       0.5156833 -0.65253425 0.57130104 0.11648273
0000b0 69 ba 49 3f f9 4d 44 3f 86 33 a9 3e 29 6b 2f 3f
       0.78800064 0.76681477 0.33047122 0.6852289
0000c0 62 08 37 3f 41 08 a3 be ce 6a c3 3e 3b fc 3e be
       0.71497166 -0.31842235 0.38167423 -0.18650906
0000d0 98 0b 3b bf 9a 15 92 bd ba d6 65 bf c2 39 c8 be
       -0.73064566 -0.071330264 -0.8978077 -0.39106566
0000e0 ac af bf 3d 7d 7c 72 3d eb 2e 43 3f 92 17 25 bf
       0.093596786 0.059200753 0.76243466 -0.6448909
0000f0 94 d5 d1 be 31 28 1b 3f 57 f1 be be 18 ae c9 be
       -0.4098326 0.606082 -0.37293503 -0.39390635
000100 d5 d0 bd 3f 5b 76 07 3f 18 3a 16 3f fc 03 d2 bf
       1.4829355 0.5291497 0.58682394 -1.6407466
000110 04 51 33 3d 6b 48 dc be 53 d0 ba bd ef e1 ae 3e
       0.043778434 -0.43024 -0.09121766 0.3415675
000120 52 00 b3 3e f3 dc ab bf 13 79 0d 3f 16 f9 ee 3d
       0.34961182 -1.3426803 0.5526287 0.11668603
000130 77 fe 93 3e d3 bc 15 3f 2c 88 0e 3f 32 b4 ad 3f
       0.2890508 0.5849125 0.5567653 1.3570616
000140 f8 4c 8c 3f 71 bb 09 be 3d e4 23 3f 57 83 55 bc
       1.0960989 -0.1345041 0.6402014 -0.013031802
000150 ae 64 e4 be 7d 65 d1 bd 4d 2f a9 bf 2c 37 9c bf
       -0.44608063 -0.102244355 -1.321756 -1.2204337
000160 7a e5 93 bd 17 7f a6 3e 69 d7 5d 3f 57 5d 55 bf
       -0.072215036 0.32518837 0.86656815 -0.8334555
000170 d9 30 b7 be ae 49 b9 3f 00 2b 96 bf af 26 4c bf
       -0.35779455 1.447561 -1.1731873 -0.79746526
000180 ed 07 3e 3f 06 27 57 3f c8 d1 27 3f 4e 4c d4 bc
       0.74230844 0.8404392 0.65554476 -0.025915291
000190 96 00 33 3d 69 ce 6b 3e 82 45 c6 bd b5 cb 45 3e
       0.04370173 0.23027958 -0.09681226 0.1931599
0001a0 fe 29 94 3d 47 78 85 be 79 9f ad 3d dd 07 4a 3c
       0.07234572 -0.26068327 0.084776826 0.012330976
0001b0 5b b6 81 bc 17 1d c2 3d 50 fe 9f 3d 4b 7e 9e 3e
       -0.015834024 0.09478205 0.07812178 0.3095573
0001c0 17 e2 2a 3f 75 94 48 bb 35 31 b0 3f 42 4f cc 3d
       0.66751236 -0.0030606065 1.3765017 0.09976055
0001d0 01 39 12 3d fd 6a b2 3e 66 79 7e bf de ef b8 bf
       0.035698894 0.3484725 -0.9940399 -1.4448202
0001e0 50 fd 6f be 5d be 2f 3e 51 0e de 3d d3 26 08 bf
       -0.23436475 0.17162462 0.108425744 -0.5318424
0001f0 23 8d 0b 3e d4 60 4a 3f 19 86 b6 bf 00 0c 80 bf
       0.13628058 0.79054 -1.4259673 -1.0003662
000200 cb ef ad be c7 9a 28 bf fb 3a 2d bf e6 8b 82 3d
       -0.3397201 -0.6586117 -0.6766812 0.0637434
000210 d5 42 89 3e bd 4c b6 be 66 50 72 3e eb 7d 82 3d
       0.268088 -0.35605422 0.23663482 0.06371673
000220 d8 e0 f4 3b 71 a4 1b 3e de 64 7b bd ca 58 cd bd
       0.0074730925 0.15199448 -0.06137549 -0.10026701
000230 e7 ce 7c bd e9 e0 5e bc d6 dc 25 be e1 d4 0b be
       -0.061720755 -0.013603427 -0.16197523 -0.13655426
000240 57 87 ee bf 11 f2 8a 3d 7d ae 27 bf fc ed 55 3c
       -1.8635052 0.06784452 -0.65500623 0.013057228
000250 8d ca eb bc de 4c f8 be df fd 08 3f 0b 40 aa 3f
       -0.028783107 -0.48496145 0.53512377 1.3300794
000260 c2 b6 dc 3d 10 6b 73 bf 95 b5 eb bd e8 e7 b0 3e
       0.10777046 -0.9508524 -0.115092434 0.3455193
000270 3c 2e 45 be 6c 9f 80 bf 79 3b b0 3f 7f f5 27 3f
       -0.19255918 -1.0048652 1.376815 0.6560897
000280 67 60 cb be 65 9e 65 bf b9 4f 44 bf a2 7b 3b be
       -0.39721987 -0.89694816 -0.7668415 -0.18308881
000290 9b 23 94 3e 43 fe 8c be 13 7d 1a 3e 7d 96 91 3d
       0.28933415 -0.27537736 0.15086775 0.071087815
0002a0 9a 8c f8 b9 2d e7 52 3e fa 98 22 bd fd 5b 86 be
       -0.00047407002 0.20595999 -0.03969667 -0.26242056
0002b0 09 a8 4f 3e cf 4a 4f 3d 13 2c a4 be 12 61 12 3d
       0.20278944 0.050608452 -0.32064876 0.035737105
0002c0 2b 8a 99 bf 95 af 0f be 99 17 38 bf 03 d8 a3 3b
       -1.199529 -0.14031823 -0.7191101 0.005000116
0002d0 e1 b1 de bc a7 8d 6d be e7 28 b0 3e 08 81 0e 40
       -0.027184429 -0.23198567 0.34406206 2.2266254
0002e0 0e da 80 3e c8 04 3f bf 32 05 8a 3d 2a 07 89 3e
       0.25166363 -0.7461667 0.06739272 0.26763278
0002f0 ca 22 0d 3c 80 ed 96 bf 9b 03 15 40 cf 02 50 3f
       0.008614251 -1.1791229 2.328345 0.81254286
000300 37 59 15 3e 3c 38 d2 bd e2 1e 4e 3e 21 8d 96 bd
       0.14584814 -0.10264632 0.20128968 -0.07351137
000310 05 11 7d bd de 64 f9 be 05 f0 5f bd 59 5e c9 3e
       -0.06178381 -0.48709768 -0.05467226 0.39329794
000320 dc 86 44 3e 3a 94 9f 3a 57 ab 28 3e 71 bb e4 bc
       0.1919207 0.0012174912 0.16471611 -0.02792141
000330 f0 84 82 3e fc a5 83 3e b3 d2 60 3d 91 eb 9e 3e
       0.25492048 0.25712574 0.05488844 0.31039098
000340 2f 9e 12 3e d3 12 c0 bd d1 a7 00 3d 8b c6 1b be
       0.14318155 -0.093785904 0.031410042 -0.15212457
000350 c0 23 3f be 9e 0b aa bd dd b7 0e bf c5 96 6b be
       -0.18665981 -0.08302997 -0.55749303 -0.23006733
000360 5e b4 29 3e e3 ea 20 be 93 da e7 3e 48 9b 30 be
       0.16572711 -0.15714602 0.45283946 -0.17246735
000370 bf 10 01 be e2 37 8e 3e 0b 61 f1 ba 5f 0b e6 bd
       -0.12604044 0.2777701 -0.0018415762 -0.112326376
000380 d5 24 16 bc 9e b9 16 3c b3 f2 3e 3e 5f de 60 be
       -0.009164055 0.009199528 0.1864727 -0.21959828
000390 04 d0 e5 3e 68 5e 97 be d6 56 86 3c b0 f4 64 3e
       0.44885266 -0.29564214 0.016398828 0.22358966
0003a0 33 89 96 3d 1e 59 05 be 9f 14 54 3e 71 59 c5 3d
       0.073503874 -0.13022277 0.20710991 0.096362
0003b0 57 00 18 3e a2 c1 3f 3e 86 58 64 3e ac 73 27 3e
       0.1484388 0.18726209 0.22299394 0.16352719
0003c0 00 99 52 3c 5e 70 02 3a d9 fa c6 3d a5 93 39 be
       0.012853861 0.00049758505 0.09715814 -0.18122728
0003d0 b9 a9 61 be dd 80 2b 3e e2 78 4a be 3b a7 7d 3d
       -0.220374 0.16748376 -0.19772676 0.06192706
0003e0 48 dd ec bd 86 c4 68 3e 75 d0 c2 3d be f2 77 bc
       -0.115656435 0.22731218 0.09512416 -0.015133558
0003f0 01 fc 45 be 63 3a 68 bd 8a cd 88 3d 89 7c df bd
       -0.19334413 -0.056696307 0.066798285 -0.10912425

fch.0.0.bias f4 [32]
000000 b0 1e ee bd 28 8e 05 3e 6d 58 05 3e f4 c3 16 3e
       -0.11626947 0.1304251 0.13022013 0.14723188
000010 61 8b d9 3c a7 59 0f be 69 3d e2 3d d8 a7 c7 3b
       0.026555719 -0.13999043 0.11046869 0.0060930066
000020 e7 58 fa 3d c4 f1 4f be b3 09 29 3e f3 c3 0a be
       0.12223988 -0.2030707 0.16507606 -0.13551311
000030 8a c7 0a 3e a7 3b 2d 3e e3 40 93 be 91 0a 11 3e
       0.1355268 0.16917287 -0.28760442 0.14164187
000040 1b 53 6e 3e 30 a0 04 be 0f 54 96 bd ca 1a 1b 3e
       0.2327389 -0.12951732 -0.07340252 0.15146938
000050 5d 32 e4 3d ea 9a 1a be 72 27 19 be 89 92 4f bd
       0.111424185 -0.15098158 -0.14956453 -0.050676856
000060 67 cd 23 3e a4 ae 13 3e 64 c6 26 3e 89 d2 13 be
       0.15996324 0.14422089 0.16286618 -0.14435782
000070 81 03 5b 3e c9 93 9c 3e 01 df 6c 3e a4 de 3a be
       0.21388055 0.305815 0.23131944 -0.18248993

fch.1.0.weight f4 [32, 32]
000000 79 d7 86 3e 09 16 3f 3f 66 3e 9c 3e c2 74 f0 bd
       0.26336268 0.74643 0.30516356 -0.1174102
000010 17 8f 3e be 51 3d 22 3d 46 25 eb 3c 60 cb 84 be
       -0.18609272 0.039609257 0.028704297 -0.25936413
000020 8e 62 1d 3f 99 18 4e 3e 6b 4b 29 bd 87 7a cc bc
       0.6147851 0.20126571 -0.04133169 -0.02496077
000030 e0 0c 44 3e 6b 88 c6 bc 71 e5 be 3e c3 b0 6f be
       0.19145536 -0.024234971 0.37284425 -0.23407273
000040 b7 af 50 bf 48 f1 98 bd f0 35 c5 3e 4a fd 60 bd
       -0.8151812 -0.07467896 0.38517714 -0.054929055
000050 59 a2 ba bc 3a b9 6e 3e 95 73 da 3d 6c 53 d8 b8
       -0.022782492 0.23312846 0.10666577 -0.00010315221
000060 c1 26 a4 3e 88 f7 7a be d7 7d d6 bd 66 41 93 3d
       0.32060817 -0.24508488 -0.10473221 0.07190208
000070 11 ed 9c 3c 17 6e 20 be 9d 24 1a be 33 9a 4a bf
       0.01915601 -0.15666996 -0.1505303 -0.7914154
000080 8e ca f9 3d 9f 4c 23 bf 95 8f 50 bf 54 d1 14 3e
       0.12196837 -0.6378879 -0.8146909 0.14532977
000090 04 d0 87 bd 98 e7 25 be 63 aa 0c bd 70 59 49 be
       -0.06631473 -0.16201627 -0.03434218 -0.19663024
0000a0 ab 0d 2a bf 95 1a 89 3d 1d 79 31 bf 2d b1 ce bc
       -0.66427106 0.06694523 -0.6932543 -0.025230968
0000b0 f2 aa 65 be a5 e5 55 3d 44 b4 e1 3d 7d dc e8 bc
       -0.22428492 0.05222096 0.11020711 -0.02842545
0000c0 34 39 84 3e 9d e9 80 3e 87 ff 40 bd 2f b7 a8 3c
       0.25824893 0.25178233 -0.04711869 0.020595161
0000d0 9d 99 9b 3d e1 3a be 3e 3a 49 3a be 09 2d 46 bd
       0.07597659 0.37154296 -0.18191996 -0.048382793
0000e0 fd 62 32 3e d1 8f 92 3d c6 98 03 bf 6b 01 1b 3e
       0.17420574 0.07156337 -0.5140499 0.1513726
0000f0 39 f1 0b bf 6e 07 cc bd c0 d1 50 be 01 9f c7 bd
       -0.5466495 -0.099623546 -0.20392513 -0.097471245
000100 63 83 c9 3d 7a fd 87 be a6 0b 1e bf 6d 76 22 3e
       0.09839513 -0.26560575 -0.61736524 0.15865488
000110 56 97 14 3d 18 ef e7 be 70 40 cb be 68 0f ae bd
       0.036277138 -0.45299602 -0.396976 -0.08499032
000120 a4 71 8b 3e 7d ee f9 bb 60 25 7c bf 57 d7 b6 be
       0.27235138 -0.007627307 -0.9849453 -0.35711166
000130 e8 63 f8 be 12 1f 76 3e cc e6 a4 bd 0f ee a7 bc
       -0.48513722 0.2403529 -0.080518335 -0.020499257
000140 98 8e 5d 3c 4e 45 92 3e 00 18 7d bd 2e d1 13 3f
       0.0135227665 0.285685 -0.061790466 0.5774106
000150 22 1f 82 3e 88 82 9a 3e f1 1d 12 be 1e 04 44 bf
       0.25414377 0.30177712 -0.14269234 -0.7656878
000160 3e cb c9 3e e3 c2 24 be dc f4 85 be 57 57 5e 3e
       0.39412874 -0.16089968 -0.26163375 0.21713005
000170 1c f6 23 bf b8 07 0f be 7a 35 9a be b5 b9 a9 be
       -0.6404741 -0.13967788 -0.30118924 -0.33149496
000180 a5 9f ea 3d 4f 33 a6 3e 0d 05 63 3e 97 48 ff be
       0.11456231 0.3246102 0.22169895 -0.4986007
000190 14 d1 a2 bc 31 49 47 3e ae c6 18 be 3f 20 24 bd
       -0.019875087 0.19461514 -0.1491954 -0.040069815
0001a0 8d 2d 7b 3e dc 1e 42 bd 9e 47 7e 3d 03 c8 15 be
       0.24529095 -0.04739271 0.06208002 -0.1462708
0001b0 6f a4 98 3e ec b5 2c bc d6 43 b3 bb 20 29 1c 3e
       0.29812953 -0.01054142 -0.005470733 0.15250063
0001c0 62 a1 a4 be 49 cf 58 bd 42 37 e2 bd 33 f5 3a 3d
       -0.32154375 -0.052932058 -0.11045696 0.045643996
0001d0 e8 68 ac 3d 68 f5 bd 3e cc 19 13 be 8f 68 11 3d
       0.08418447 0.37101293 -0.1436531 0.035500105
0001e0 0c d0 ad bc e3 ad 09 be 55 68 b2 bd 4f c8 77 3e
       -0.021217369 -0.13445239 -0.08711306 0.24197505
0001f0 8c 1e 8f be 4e 50 81 be 2c b1 a4 bd d9 97 71 be
       -0.27952993 -0.2525658 -0.08041605 -0.23593082
000200 36 30 c6 bd 24 10 88 be 00 9f 9a be 7b c4 11 3f
       -0.09677164 -0.26574814 -0.30199432 0.5694043
000210 03 7b 39 3d 92 74 d3 bd ec ed c9 3d cf 31 08 bd
       0.04528333 -0.103249684 0.09859833 -0.033250626
000220 50 46 e4 bc b3 b4 7c bd 05 0c f9 3d 5c 4d 61 3e
       -0.027865559 -0.061695766 0.12160496 0.22002167
000230 89 bf e3 be 73 61 32 bd ef 13 ec bd 29 6c d5 3d
       -0.44482067 -0.043549966 -0.115272395 0.104210205
000240 fe 4f d5 3e 20 23 fe bc ef 22 e5 bd 77 dd 02 3e
       0.41662592 -0.031022608 -0.11188304 0.12779795
000250 5c 1c 03 be 09 98 aa be e9 88 0b be 41 77 25 bd
       -0.12803787 -0.3331912 -0.13626446 -0.040396933
000260 3d a3 52 be 9b 28 89 3d 45 10 20 3d da 8f 7a bd
       -0.20570083 0.06697198 0.039078016 -0.061172344
000270 62 3e 3b 3e 88 fc 9a 3e 99 fd 1e be 7a 96 42 3e
       0.18285516 0.3027079 -0.15526427 0.19002715
000280 3f 06 ad bd fd ee 98 3c 52 55 ba 3e a2 a7 ec be
       -0.08448457 0.018668646 0.3639322 -0.46221644
000290 6d f2 11 be 5a 73 ac 3e 9f f8 20 be b0 86 19 be
       -0.14252634 0.33681756 -0.15719841 -0.14992785
0002a0 04 98 a3 3c 44 00 64 be aa d9 b3 bd dd 7b 84 3d
       0.019969948 -0.22265726 -0.087817505 0.064689375
0002b0 3a c1 ab 3e 5c 68 2c 3e e1 10 e6 bd 90 7b 1e 3e
       0.33545858 0.16836685 -0.11233688 0.15476823
0002c0 aa c6 7b be ff b7 35 3e 2b ce 24 bd f4 93 da 3b
       -0.24587503 0.1774597 -0.04023568 0.0066704694
0002d0 64 5b 35 bd d8 c7 eb 3e d6 28 ee bd 8a 96 67 3e
       -0.04427661 0.46050906 -0.116288826 0.2261602
0002e0 12 90 a5 3d 8f aa 99 3e 67 db 73 bd be b2 11 3e
       0.0808412 0.30012938 -0.05953541 0.14228341
0002f0 64 e7 65 be 11 42 c2 be a3 79 81 be 63 2d 60 be
       -0.2245155 -0.3794103 -0.25288114 -0.21892314
000300 9f 09 26 be b4 5b db be ea 55 60 be 2d e3 c5 3d
       -0.16214608 -0.428434 -0.21907774 0.09662471
000310 61 bb 9a 3e b3 6b fa bd 54 28 54 bd 87 6f b8 3d
       0.30221084 -0.12227573 -0.051796272 0.09005647
000320 37 13 66 be 73 f6 96 3d a2 72 04 be 75 48 1a 3d
       -0.22468267 0.07371225 -0.12934354 0.037666757
000330 3e 99 1c bf 79 cd e1 bd 67 a0 29 3e b7 23 c3 bc
       -0.6117133 -0.11025519 0.16565095 -0.023820741
000340 a9 38 48 3e 3e 5c fc 3d 9f 1a 57 3d de e7 6f 3e
       0.19552864 0.12322281 0.052515622 0.23428294
000350 b6 32 20 bd 71 6f 94 be 78 ba 0f be c5 f2 22 be
       -0.03911086 -0.28991273 -0.14035976 -0.15912922
000360 2c 1c 3e 3e a2 01 25 3c c4 ba a7 bb 9c 83 00 be
       0.18565434 0.01007119 -0.0051186997 -0.12550205
000370 34 03 11 bc 88 54 52 be 00 a0 08 be e2 9c 31 bd
       -0.008850861 -0.20540059 -0.13342285 -0.043362506
000380 18 5d eb 3d de 32 20 3e b5 1d e4 3c 60 e3 d6 be
       0.114923656 0.15644404 0.027846197 -0.41970348
000390 67 08 ca be 11 78 10 3f c9 0b 4c be fe 9c 54 3d
       -0.39459535 0.56433207 -0.1992637 0.051907532
0003a0 6f 31 fb 3d 1f 2c 55 be 52 e0 ee 3d ba f5 1b 3e
       0.12265288 -0.20817612 0.116638795 0.15230456
0003b0 2f a3 a5 3d 46 7e 7f 3e 1d 41 77 be 9d 8c f3 bd
       0.080877654 0.24950513 -0.24145932 -0.11892054
0003c0 a5 4e be bd 9b 06 08 3e fc bc 43 3d 20 f7 cf 3d
       -0.09292344 0.1328377 0.04778765 0.10154557
0003d0 36 81 3e 3d 20 cc 3b 3e 95 0c e9 be de 77 03 3c
       0.046509944 0.18339586 -0.45517412 0.008024184
0003e0 da 45 4f 3e a7 10 60 3e c5 60 14 be ad 63 93 bd
       0.2024149 0.21881352 -0.1449004 -0.07196746
0003f0 e8 d6 24 3e cc 94 3b bf 7c 1c b2 be 12 72 30 3c
       0.16097605 -0.7327392 -0.34787357 0.010769384

fch.1.0.bias f4 [32]
000000 1c d9 d9 3b 53 38 04 be 3b 7a 25 be 4c e8 82 3d
       0.006648196 -0.12912111 -0.16159908 0.06391963
000010 1f 09 95 3e d8 cd 06 bb f9 b7 97 bd ee c9 8d bd
       0.2910852 -0.002056947 -0.07408137 -0.06923281
000020 73 c0 26 3e af 08 59 be 95 22 6c bd cf 50 b2 3d
       0.16284351 -0.21194719 -0.057650167 0.08706819
000030 e5 76 98 3d 41 52 08 3c d9 6b 34 be 1c c6 65 3d
       0.07444552 0.008320392 -0.17619266 0.056097135
000040 24 4e 7a bd 32 0e 94 bd 1f e4 fb 3c d3 4e 02 3d
       -0.061109677 -0.0722927 0.030748425 0.031813454
000050 3e 09 04 3e 57 53 41 3d e6 13 0d bf 18 45 49 be
       0.1289415 0.04719862 -0.5510849 -0.19655263
000060 f2 aa 20 3d 79 12 14 be 04 f8 a2 3d 1a 80 08 bd
       0.039225526 -0.14460172 0.079574615 -0.033325292
000070 7b 4e 01 bc 38 74 5e 3e 43 ed a9 3d 2d 32 48 be
       -0.007892246 0.21724021 0.08297207 -0.1955039

fce.weight f4 [1, 32]
000000 93 c7 f0 3e 32 0c 98 be f7 a2 de 3e 0b f9 a4 3e
       0.47027263 -0.29696804 0.43483707 0.32221255
000010 7e 60 3b bf f3 d2 ab 3e 80 11 e6 bd a4 a4 bd 3e
       -0.7319411 0.3355938 -0.112338066 0.37039673
000020 ec b3 a7 be 08 b4 f2 3e ca cc 91 be 32 b0 e2 be
       -0.32754457 0.47402978 -0.28476554 -0.4427505
000030 89 95 95 3e c7 1c 23 be 97 88 92 3e 3c ef 80 be
       0.2921565 -0.15928946 0.28619835 -0.2518252
000040 9c 03 e4 bd fa 5a e1 3e bd 22 47 3e 1f e3 5c be
       -0.11133501 0.44014722 0.19446845 -0.21571015
000050 51 86 50 3f 39 7d 1d be 5c cf 27 3e 03 ad a6 3e
       0.8145495 -0.153798 0.16387695 0.32553872
000060 9e ea ff be 4c 1e 83 3e 30 8d 1c bf 45 5e 8e be
       -0.49983686 0.25609052 -0.61152935 -0.27806297
000070 30 34 d0 3e 1f e2 e9 be 5e 1f b4 3e a4 93 49 bd
       0.40664816 -0.4568033 0.3518018 -0.049213067
