models/PINN_Pendulum_w0_3_5.pth (torch, 12316 bytes, 7 tensors)

fcs.0.weight f4 [32, 1]
00000000: bc30 b0bf a694 32bf 0130 a8bf 860e 893f
00000010: e358 89c0 596f 1d40 020c c2bf ad6a edbf
00000020: 9450 08c0 8197 993f 3456 41bf e32f 9b3e
00000030: 13c6 02c0 2388 93bf 6ed7 1fbf 05bb c8bf
00000040: 764b eebf a9d8 c03f 5856 bdbf 67ce 943e
00000050: 37e4 ed3f dff5 3bbe 2dd1 ab3f 4dd4 7640
00000060: e483 4bbf 1240 a7be 0d91 92bf 5d50 b43f
00000070: 0e85 c73f e606 bcbf 2a2d f43f a0fe c23f
-1.3764873 -0.6975807 -1.313965 1.0707557 -4.2921004 2.4599211 -1.5159914 -1.854818
-2.129918 1.199936 -0.7552216 0.30309972 -2.0433395 -1.1525921 -0.62438095 -1.5682074
-1.8616779 1.506612 -1.4791975 0.29063722 1.8585271 -0.18355511 1.342321 3.8567078
-0.79498124 -0.3266607 -1.1450516 1.4087025 1.558748 -1.4689605 1.9076283 1.5233955

fcs.0.bias f4 [32]
00000000: 44d2 023f 4bbc 843e afe6 343f f373 80be
00000010: b78e b6bd 5428 78be 3994 e9be 3614 823d
00000020: 8e8e 90bd 4b46 03bf ce11 1f3e a8e8 243f
00000030: faae c03c 7e21 973d 250b faba 628f 533b
00000040: e4f3 bd3f 527b 243e b824 8a3f db7c 673c
00000050: 6fbc 5e3d 899f 273e c81e e5be 76c7 6ec0
00000060: b809 87be 5d88 dc3e 7fbc 353e f594 70bf
00000070: 1e05 473d be9b 623f b8ac b0bf 215f 89bf
0.5110209 0.25924906 0.70664495 -0.25088462 -0.089139394 -0.24234134 -0.45620897 0.06351511
-0.0705844 -0.51279134 0.15534136 0.64417505 0.023520935 0.07379435 -0.0019076808 0.0032281508
1.4840055 0.16062668 1.0792456 0.014128889 0.054378923 0.16369452 -0.44750047 -3.7309241
-0.26374602 0.43072787 0.17747687 -0.9397729 0.048588865 0.88518894 -1.380271 -1.0732156

fch.0.0.weight f4 [32, 32]
00000000: c3ad cfbd 074f 07bd b9d8 8bbd ebb4 35bc
00000010: 29ec 5fbe 0255 c53d cfd0 413e 889f ce3d
00000020: e0eb fdbd 0ae5 04be 7cf1 3f3d b18b 5bbd
00000030: a421 813d e751 28be 6039 19bc 5b8a 573e
00000040: bc54 403d 2604 cbbb 3cdb 39bd c78d 08bc
00000050: d9e9 cdbd ce00 11be 34b6 13be 5f2e 373e
00000060: 6de3 fe3d afc1 d9bc fb79 18be 0109 2b3e
00000070: ffe2 613d ca4d b93d 8c8a 14bd 9c6c a23d
00000080: 858e 8b3e f495 a53d 04e0 1a3e c556 98be
00000090: fc82 b33e f541 0dbf dd7d b23d c3c9 063e
000000a0: db7b e53d 599f b1bd cf5d 123e 381a 003e
000000b0: 75bc 8e3e 99bb 303e 4e67 123e e38d d33d
000000c0: 9fa6 083e 5643 d2bd b69b 013d ccce 49bd
000000d0: a49a 8abe cc63 f9bc 635a 5abe ed71 fe3d
000000e0: f364 543c ae49 fc3c 4fbb c53e b963 c4bd
000000f0: 7e4a 223b 2b9c 12bd 4ee6 7c3d 21c3 0d3d
00000100: 9543 803f 74cb 0d3f 76e2 6a3f a1de 2dbf
00000110: 40ff 19be bc06 7ebe 8d6d 1cbe 593b c6bb
00000120: 5eb6 d73d 3178 56bf 50a5 9f3e b742 ac3d
00000130: 2774 943d 69a6 dc3d 3268 6e3e 556f dc3e
00000140: 5214 493f 413a efbc 4c22 883f f237 1ebe
00000150: 8074 26be 81b2 52bd 53b5 17bf 0ca8 88bf
00000160: cfa3 0ebd 2a68 983e 431f ed3e 4d4d 34bf
00000170: 9094 42be 493c 483f dd73 bbbf 2fb0 6dbf
00000180: 90f1 1f3d 2b01 b43d ee65 12be 4bfb 543e
00000190: 2afe d13d 8b9b 513e 8f4d 243c 2740 f83d
000001a0: 690d b33d fe89 053e baf2 36bd d51e ffbd
000001b0: 16f0 f9bc 732f 3b3b 1d84 45be 29a9 0bbd
000001c0: b6f0 33be e2c2 12bd c8d9 083e 4be3 9a3d
000001d0: 2d91 903c e186 eabb 70bd 3e3d 5811 19be
000001e0: eef9 1cbe ea69 31bd e1e6 efbd d4ae f03d
000001f0: cec7 1d3e 46f5 4abe 6f84 0dbe 78af 21be
00000200: 1f62 3a3b 66b4 803d 8bf5 67be 1f35 e13d
00000210: 8aa0 da3d 6e3f 50be 5af5 c03d 83b2 ee3c
00000220: 2cb4 8abd f4de b23d 2825 c5bd 00f9 c93c
00000230: 58a3 13be 9dec a4bd 6319 1dbe 2c7f aabb
00000240: 144f 49be e11d 233e ed14 2bbe 041d ef3d
00000250: bc77 cb3d 5aba 0cbe d5df aa3c 1f0d 8d3e
00000260: 4c6f c33b c330 6bbd 555b 9bbd 80c1 163e
00000270: f389 c7bd 01d4 69be 2378 6c3e 1d08 9c3d
00000280: d494 d63e 4d70 c7bd a1c2 043e ea58 d4be
00000290: 5b14 cb3d 095f 3bbe 2a35 25bd 1bdc bb3d
000002a0: d65c 8abd 9609 7bbe 25a2 013e 925a adbd
000002b0: 29bb 273e 9261 f93d 4626 e2bd a56b 903e
000002c0: d952 ce3e e053 59bd 8cbb 323e 920d 42bd
000002d0: fafc 803d 4721 573e 08a2 ddbe 43d7 d4be
000002e0: 81cb 0f3e 0ea6 153e a91f a73e b63c c6be
000002f0: 6c1e 803d d203 573e 46e8 a2be d2ce 9abe
00000300: 28e0 143f e74a a0bd e9af c83e a31f 18bf
00000310: 558d a13e 5d2b 26c0 e8ef 96ba 1365 5e3f
00000320: 0876 e03e f660 89be bd9c 843e 7cb5 a13b
00000330: 749d 123f 15eb 283f 5c26 b13d a0a1 a23f
00000340: 0053 f83e 1c05 48be a543 613e 121b 61be
00000350: dc2e cabe 3ca2 6abd 65b9 34c0 2dd4 1abf
00000360: 4f64 383e 2a3f e3bd a921 273f 2574 f5be
00000370: fc8a c0be 96d4 363f dc0f 82be 330e adbe
00000380: 5ac3 5dbe d0b6 89bd 6c7b 533d 8014 f83c
00000390: e5b3 933e 08c4 aebd d640 1cbd 34ca a33d
000003a0: c4f3 37bc d348 f93d e17b 753d bbd4 db3d
000003b0: 5c21 533c 486a 933c a280 893d 974e b5bc
000003c0: c626 d1be cf9d 823d 4014 2abe 76b8 aebd
000003d0: 6da1 88bd ad9d 33bc 17d8 593d 798a 0c3f
000003e0: aaa0 0cbe b2a3 273e 115a fcbd f4ad 753e
000003f0: 7bf3 a5bd 81f8 8ebe d343 a13e fd51 013e
-0.10140564 -0.03303435 -0.06828446 -0.0110904975 -0.21867432 0.096353546 0.1892731 0.10089022
-0.12398505 -0.12977996 0.046861157 -0.053600017 0.063052446 -0.16437493 -0.009352058 0.21048872
0.04695581 -0.006195563 -0.045375094 -0.008334584 -0.100543685 -0.14160463 -0.14424974 0.17888783
0.12445722 -0.026581613 -0.14890282 0.16702653 0.05514812 0.0904804 -0.03626494 0.07930872
0.2725717 0.08085242 0.15124518 -0.297537 0.3506087 -0.5517877 0.08715413 0.13162903
0.11205264 -0.08672971 0.14293598 0.12510002 0.27878156 0.17259063 0.1429722 0.10329797
0.13344811 -0.102667496 0.03164264 -0.049269482 -0.27071106 -0.030443095 -0.21323542 0.12424073
0.012963521 0.030796852 0.38619468 -0.09589333 0.002476364 -0.035793465 0.061743073 0.034609918
1.0020624 0.5538857 0.917518 -0.6791783 -0.15038776 -0.24807256 -0.15276165 -0.0060495553
0.10532831 -0.8377715 0.3118081 0.08411162 0.07248717 0.10773928 0.23281935 0.4305369
0.7854663 -0.029202582 1.0635467 -0.15451029 -0.16255379 -0.051439766 -0.59261054 -1.0676284
-0.03482419 0.2976697 0.46312913 -0.7043045 -0.19001985 0.7821699 -1.4644734 -0.9284696
0.03904873 0.08789285 -0.14296696 0.20798986 0.10253556 0.20469491 0.010028257 0.12121611
0.08742792 0.13040921 -0.044665076 -0.124570526 -0.03050999 0.0028562217 -0.19288678 -0.03409687
-0.17572293 -0.035830386 0.13364327 0.07562884 0.01764735 -0.007157192 0.04656738 -0.14948022
-0.15329716 -0.0433139 -0.117139585 0.11752096 0.1540825 -0.19820127 -0.1382005 -0.15789592
0.0028439832 0.06284408 -0.22652261 0.1099646 0.10675152 -0.20336697 0.09421797 0.029137855
-0.06772646 0.08733931 -0.096262276 0.024654865 -0.1441778 -0.08052943 -0.15341716 -0.0052031484
-0.19659072 0.15929367 -0.16707201 0.11675456 0.09934947 -0.13742962 0.020858685 0.27549073
0.0059641954 -0.05741955 -0.075857796 0.14722252 -0.097431086 -0.2283478 0.23092704 0.07618735
0.41910422 -0.097382165 0.1296487 -0.41474086 0.09915992 -0.18297972 -0.040333904 0.09172841
-0.06755988 -0.24515375 0.1265951 -0.084645405 0.1637999 0.12176813 -0.11042456 0.28207126
0.40297583 -0.053058505 0.17454356 -0.047376223 0.062982515 0.21008788 -0.43287683 -0.41570482
0.14042474 0.14614126 0.32641342 -0.38718194 0.062558025 0.20997551 -0.31817836 -0.30235916
0.58154535 -0.078267865 0.3919671 -0.59423274 0.3155314 -2.5963967 -0.001151559 0.86872977
0.4384005 -0.26831788 0.25900832 0.0049349647 0.57271504 0.65983707 0.086498946 1.2705574
0.48500824 -0.19533199 0.2199846 -0.21982983 -0.39488876 -0.057283625 -2.8238156 -0.60480005
0.18007015 -0.11096032 0.65285736 -0.47940174 -0.37606037 0.7141813 -0.25402725 -0.33799896
-0.21656552 -0.06724322 0.051631376 0.030283213 0.28848186 -0.08533484 -0.03814777 0.079975516
-0.011227552 0.12172093 0.059932593 0.107339345 0.012886371 0.017995015 0.06713988 -0.022132201
-0.40849894 0.06377756 -0.16609287 -0.08531277 -0.066714145 -0.010962886 0.053184595 0.5489879
-0.13733163 0.16371039 -0.12321866 0.23992139 -0.08103081 -0.27923968 0.31497058 0.12628932

fch.0.0.bias f4 [32]
00000000: 8e14 53be f36c ba3d 285b be3d 5d0b e9bc
00000010: 186b 363e 5f68 ca3d 8b69 413e 9767 113c
00000020: d6d0 ddbd ce90 49be 53e8 113e c761 c1bd
00000030: 89cf f53d 2b17 c03d ec8a abbd ec18 cdbb
00000040: 846f 893e 9853 ae3d c281 1bbd 0ac3 ea3d
00000050: 360e 20bc c451 0fbe 15b2 10be 47ef 52be
00000060: 5f67 db3d 9d27 d73c 2946 0b3e 0413 78be
00000070: 468c 3b3d dd52 0d3c 3f41 e13d 435a b7bd
-0.2061331 0.09102812 0.092947304 -0.028447801 0.1781429 0.098831885 0.18887918 0.008874795
-0.10830848 -0.19684145 0.14248781 -0.09442478 0.12002475 0.09379419 -0.083761066 -0.0062590744
0.26842892 0.08512038 -0.037965544 0.11462982 -0.009769013 -0.13996035 -0.14130433 -0.2059909
0.10713076 0.026264006 0.13600983 -0.24226004 0.045788072 0.008625713 0.10998773 -0.08952763

fch.1.0.weight f4 [32, 32]
00000000: 3ae3 0e3e 161f bc3d 2e95 5b3e fbd7 5ebd
00000010: 33d6 61bd ec37 96bd ad83 a93e 2da1 53be
00000020: ea0c 34be 4ec3 aebd daa3 1bbe ce56 613e
00000030: d4a1 4cbd 9ebd 0cbe 7f16 fa3d 0e17 893e
00000040: 7b19 bebd 53f4 76bd 91b4 183e 1d7d e5bd
00000050: ea23 ebbd 0a5d 823e 99e4 1d3c 2d47 69bd
00000060: 4b73 443e 24d3 e73c 30fe d1bd 250a b1bd
00000070: 0236 963d b387 48be 67a1 07be 1848 40be
00000080: 97e0 363d 55af 1ebe a69f 0abd d754 ef3d
00000090: d59c 83bd 0710 11bd b7dc 49be d8e5 cfbd
000000a0: 870f 8e3e ee54 e73d 3785 39bd b183 1c3d
000000b0: c98b 713d db14 17bd 1b1f 173e 2a5b 2ebe
000000c0: 1539 ae3e cd00 eb3d b7b5 02be f9de f3bd
000000d0: d243 af3c 678c ae3d c21d eebd 1c13 183d
000000e0: 1abb cc3d 5404 c23d 2950 eabd d2fd b73d
000000f0: 42c4 6abe 7995 c83c 9472 533c a0f8 05bd
00000100: 446e ebbd 7318 c7be 18ec 51be 698e 8f3e
00000110: ca5a 493d 3e0a e7be 4889 08bf 47c4 af3e
00000120: c692 a23f 79dc 0abe f66b 13bf 2d24 0a3d
00000130: 20b1 f3be 0500 a73e 3d1f a4bd 750c 7cbd
00000140: d6c0 bf3c d888 ab3e 0bb7 edbd a076 583f
00000150: a30e a43e ef46 283f f9d9 eebe 9f6e 59be
00000160: a68b 083f 5ee1 80be a9a7 b4be 1417 853d
00000170: 0a4b a0be aa1a 38be dc7c 06bf 3cae e0be
00000180: b9a6 9b3d 9d12 1e3e 358d 34be 42dc e7bd
00000190: c1b4 173e efce d53d e985 4bbe 7341 3ebd
000001a0: a790 743e 5df8 f13d f7e6 7b3d a64f 1fbe
000001b0: 816a 1dbc c0c6 d0bc eea5 0f3e a172 2ebe
000001c0: ee5f 2d3d 0551 2cbe 8a51 92bd c5f6 2cbd
000001d0: 19de 563c 4b2e 113b 1b5d 073c 9045 dc3c
000001e0: 4648 e4bd f458 1ebe 3d5c a5bd 60a1 473e
000001f0: 2945 51be 623d b2bb 7c72 773c a981 d6bc
00000200: cea4 04be 4385 e8bd 79bf cabe c71a d23d
00000210: 79e0 30be 7400 c2bd 1ff6 a5bd 045d 0b3e
00000220: ad9c ca3e 67e6 26bd baf0 1e3e c5a1 b3bc
00000230: 1978 3b3e 9d6e d1bd 86f5 91be 305c 783d
00000240: b80e 9b3e d7c7 b3bd dd44 0ebe fc5d e93d
00000250: 398d 44be bcf4 a6be 4f76 85bd 8c50 08be
00000260: 7625 4abe 077a f03d 523a ef3d ab05 42be
00000270: 836d 4f3c 053f 1b3e 514a f0bd 6700 423e
00000280: bdc1 0dbe 8a0b 91bd f539 313e 58fb 163b
00000290: 8c49 eb3d 456a 053e 2ed2 c8bd 17a6 abbe
000002a0: a0f7 7dbe 0a4a 5dbd b463 0cbe a8c2 db3e
000002b0: 699e 47be f4af 9d3d b31a b1bd 4825 4c3e
000002c0: 87aa 36be d0fd fe3d 39c9 233e afa6 31be
000002d0: 46af bfbd 7246 713e e7cb 3e3e 2f69 9a3e
000002e0: d21e 2bbc 5ebc ce3d 786b 0f3d 1614 a63d
000002f0: e7ba 5abe e33c f5bd 4a74 05be cfe7 1fbe
00000300: 0fe3 3fbe e8f8 95bd c1b5 f9bd c1dc 0f3e
00000310: c1cd 5e3e 9da9 98bd 2c15 aabe 5974 153e
00000320: 4d3f 8e3e 2ae9 023e ba5b 3b3e bca2 39be
00000330: 14b9 433e 5684 61be 8eb8 f03c 27b5 bbbd
00000340: a247 af3e 840a 87bd 3ae8 bf3c b479 963b
00000350: 0834 2fbe 5d2f a1be 3c82 763d 9f6b 0abe
00000360: e587 ee3c 4b87 afbd 8a86 423e dc1a 02bd
00000370: ce87 35be 6e31 acbd 1b03 f33d 5484 f33d
00000380: 1d58 97bd 6e5d 313e d787 07be 0a4e e3bc
00000390: 2e2f bdbd cfd4 463e f274 c5be e854 733c
000003a0: 5e2a 943e f01e a83d 5746 673e 9bbc 3d3e
000003b0: 18a6 063e 042d ec3d dc79 4f3d 65ed 5cbe
000003c0: 8e5e 793e 8a1f e8bd f1f3 c93d 5717 5dbe
000003d0: 1865 3ebe a93a 9dbe 13ef a53d 1d7d 193c
000003e0: cdea e13b b982 0e3d b5eb d43a 971c 22bd
000003f0: d0c9 f53d aba5 41bd 6ff8 9abc df33 a03e
0.13953868 0.09185617 0.21443626 -0.054405194 -0.055135917 -0.07334885 0.33108273 -0.20666952
-0.17583051 -0.08533345 -0.15199223 0.2200577 -0.04995902 -0.13744208 0.12211322 0.26775402
-0.09282204 -0.0602916 0.1491263 -0.11205504 -0.114814594 0.25461608 0.009637021 -0.056952644
0.19184606 0.028298922 -0.102535605 -0.08644513 0.0733452 -0.19583015 -0.13245164 -0.18777502
0.04464778 -0.15496571 -0.03384366 0.11686104 -0.06426398 -0.035415675 -0.19713102 -0.10151261
0.2774622 0.11295496 -0.04529306 0.03821153 0.0589712 -0.036885124 0.1475796 -0.17026964
0.34027925 0.11474762 -0.12764631 -0.11907763 0.021394644 0.08522873 -0.116267696 0.0371276
0.09996624 0.09473482 -0.114410706 0.08983959 -0.22926429 0.024485337 0.0129057355 -0.03270781
-0.11495641 -0.3888584 -0.20500219 0.28038338 0.04915885 -0.45125002 -0.53334475 0.34329435
1.2701042 -0.13560666 -0.5758661 0.033725906 -0.47596073 0.32617202 -0.08013771 -0.061535317
0.023407381 0.3350284 -0.11607178 0.8455601 0.32042417 0.65733236 -0.46650675 -0.21233605
0.53338087 -0.25171942 -0.35284165 0.064985424 -0.3130725 -0.17978922 -0.5253427 -0.4388293
0.07600159 0.15436788 -0.17631991 -0.11321308 0.14815046 0.1043986 -0.19875301 -0.046449136
0.23883305 0.1181495 0.061499562 -0.15557727 -0.009607912 -0.025485396 0.14028141 -0.17035915
0.042327814 -0.16827781 -0.071444586 -0.042227525 0.013114476 0.0022152837 0.008261944 0.026888639
-0.111465976 -0.1546362 -0.08074234 0.19495153 -0.20436539 -0.0054394463 0.015102979 -0.026184874
-0.12953493 -0.11353543 -0.39599207 0.102590136 -0.1727313 -0.09472743 -0.081035845 0.13609701
0.3957266 -0.040747073 0.15521517 -0.021927724 0.18307532 -0.10226176 -0.28507632 0.06063479
0.30284667 -0.08778351 -0.13893457 0.11394879 -0.19194497 -0.32608593 -0.06516706 -0.13311976
-0.19740853 0.11742025 0.116810456 -0.18947475 0.012660387 0.15160759 -0.11732925 0.18945466
-0.13843437 -0.07082279 0.17307265 0.0023037996 0.11488637 0.1302882 -0.098057136 -0.33525154
-0.24801493 -0.054025687 -0.13709909 0.42921948 -0.19494022 0.07699576 -0.086476706 0.19936097
-0.17838489 0.12450755 0.15994729 -0.17348741 -0.09359603 0.23562029 0.1863247 0.30158374
-0.01044436 0.10094522 0.0350146 0.081093 -0.2136036 -0.11974504 -0.13032642 -0.15615772
-0.1873896 -0.07322866 -0.1219287 0.14049055 0.21758176 -0.07454226 -0.33219278 0.14595164
0.2778267 0.12784258 0.1829671 -0.18128484 0.1911357 -0.22023138 0.029384878 -0.091654114
0.3423434 -0.065938026 0.023426164 0.004592145 -0.17109692 -0.31481448 0.060182795 -0.13517617
0.029117534 -0.08570727 0.18996635 -0.031763896 -0.17727587 -0.084078655 0.11865827 0.11890474
-0.07389853 0.17320797 -0.13235413 -0.027747173 -0.092375144 0.19417118 -0.38565785 0.014851786
0.28938574 0.08209026 0.22585426 0.18528979 0.13149297 0.115320235 0.050653324 -0.21574934
0.24352476 -0.113341406 0.09860981 -0.21590935 -0.18593252 -0.30708817 0.081022404 0.009368208
0.0068944455 0.034792636 0.0016244563 -0.039578047 0.12001383 -0.047277134 -0.01891729 0.31289575

fch.1.0.bias f4 [32]
00000000: a7ad 693d a5d6 acbd 2141 2abe 1496 3c3e
00000010: 2b13 8b3e c701 90bd 3041 e13c 2422 e13c
00000020: 3720 ee3e 6e84 52be 56b4 5cbe dd81 b03d
00000030: b66f 063e 26d3 8cbd ed21 963d dbad 3abe
00000040: 277a 44bc 1c97 38bd 7783 d5bd 4295 2b3d
00000050: 0866 063e 7249 7dbb 71de 9abe c466 4ebe
00000060: 84a4 b73d 5b2c e8bd d2f7 01be a2cc 9abd
00000070: 8c18 42bd 32da b3bc b8d9 d03c 3fc1 09bf
0.057050373 -0.08439378 -0.16626407 0.18416625 0.27163061 -0.07031589 0.027496904 0.0274821
0.46508953 -0.2055833 -0.21553168 0.086185195 0.13128552 -0.06876211 0.073306896 -0.18230383
-0.011992014 -0.045065984 -0.104254656 0.04189039 0.1312486 -0.0038648513 -0.30247834 -0.2015639
0.08966926 -0.11336585 -0.12692192 -0.07558562 -0.04738669 -0.02195463 0.025494441 -0.53810495

fce.weight f4 [1, 32]
00000000: 474f 873e f1cb cebd dc07 153f bfe3 16be
00000010: b712 bdbe 2799 023f a516 c1be d72c c0be
00000020: 13b5 9dbe 2c27 a73e 1e35 783e 34c7 debe
00000030: 7bbb 3bbd f744 a5be e38d 85be a7b4 bb3e
00000040: ffb2 9d3e 4656 2a3e be49 763e 47ae 92be
00000050: db61 463f d5a4 85be 25c0 b83e b39c 453d
00000060: c4c9 8ebe 33c4 1c3f 3ecf 94be f248 583d
00000070: 34f4 773e b039 403e 76dd a13e 93ae c53e
0.2642767 -0.100974925 0.5821512 -0.14735316 -0.3692834 0.5101494 -0.3771259 -0.3753421
-0.3080221 0.32647073 0.24239013 -0.43511355 -0.045833092 -0.32279179 -0.26084813 0.36661264
0.30800626 0.16634473 0.24051568 -0.28648588 0.77493066 -0.2610232 0.36084095 0.048245143
-0.2788831 0.61236876 -0.29064363 0.05280394 0.2421425 0.18772006 0.31614274 0.38609752
