models/PINN_Pendulum_w0_2.pth (torch, 12228 bytes, 7 tensors)

fcs.0.weight f4 [32, 1]
0	0xbf7c14bb	-0.9846913
1	0xbe8d1844	-0.27557576
2	0xbfa5128a	-1.2896283
3	0x3f611caf	0.8793439
4	0xc054c8a8	-3.324747
5	0x3ff1bc0b	1.8885511
6	0xbfa2c37c	-1.2715907
7	0xbfb55566	-1.4166687
8	0xbf94bbb4	-1.1619782
9	0x3f7b8306	0.982468
10	0xbf1e49f5	-0.618316
11	0x3f5d572f	0.86461157
12	0xbfaacfa1	-1.3344613
13	0xbf7b9e7b	-0.98288697
14	0xbf0263c0	-0.50933456
15	0xbf59461c	-0.84872603
16	0xbfa66e9e	-1.3002508
17	0x3f856471	1.0421277
18	0xbf3d4cd5	-0.7394536
19	0x3f14737d	0.5798872
20	0x3fa75eef	1.3075846
21	0xbe94d870	-0.2907138
22	0x3f53bb34	0.82707524
23	0x3fc15328	1.5103502
24	0xbf2a1b1a	-0.66447604
25	0x3d581278	0.05275199
26	0xbf5480b0	-0.8300886
27	0x3fa68ab6	1.3011081
28	0x3fe1f5f9	1.765319
29	0xbfb303cf	-1.3985537
30	0x3fd5f591	1.6715566
31	0x3f99d76e	1.2018869

fcs.0.bias f4 [32]
0	0x3f1931df	0.5984172
1	0x3ef34ba8	0.4751866
2	0x3f920f07	1.1410836
3	0xbe8bc42e	-0.2729811
4	0xbe66a2fd	-0.22523113
5	0xbd8c1a57	-0.068409614
6	0xbf179455	-0.5921071
7	0x3dcc8768	0.09986764
8	0xbdc8527c	-0.09781358
9	0xbf3f6450	-0.7476244
10	0x3e254dbc	0.16142935
11	0x3f5f9072	0.8732978
12	0x3cc4f15d	0.024040872
13	0x3e185ee3	0.14879946
14	0xbcbe4634	-0.023226835
15	0x3e5134b3	0.2043026
16	0x3f7ff51f	0.999834
17	0x3ead2f0a	0.3382495
18	0x3f124d57	0.5714926
19	0x3e06d35a	0.13166562
20	0x3ba096a8	0.004900772
21	0x3e72ad20	0.23698854
22	0xbe9dfa72	-0.30855137
23	0xbfa479c0	-1.2849655
24	0xbf10f59d	-0.56624776
25	0x3f48194d	0.78163606
26	0x3e682ab1	0.22672535
27	0xbf86768b	-1.0504926
28	0x3e1a747c	0.15083498
29	0x3f916bdf	1.1361045
30	0xbfcc6ce7	-1.5970734
31	0xbf7bbdb9	-0.9833637

fch.0.0.weight f4 [32, 32]
0	0xbd774bd8	-0.060375065
1	0xbc8c6100	-0.017136097
2	0xbce9ccef	-0.028540103
3	0xbbfb9e71	-0.0076788
4	0xbe613fd5	-0.21997006
5	0x3e0b4efd	0.1360435
6	0x3e28a60e	0.16469595
7	0x3daa9175	0.08328525
8	0xbe07adfd	-0.13249965
9	0xbe1da015	-0.15393098
10	0x3d82bb8e	0.063834295
11	0xbcadc6c2	-0.02121294
12	0x3d554e4b	0.05207662
13	0xbe369dbc	-0.17833608
14	0x3b346ec6	0.0027531846
15	0x3e2f6a7c	0.17130464
16	0x3dc0354b	0.09385165
17	0x3b74ab48	0.0037333537
18	0x3cc66d03	0.024221903
19	0xbcc71dab	-0.024306139
20	0xbd9c3ef5	-0.076291956
21	0xbd9663f0	-0.0734328
22	0xbe13c657	-0.1443113
23	0x3df0b91d	0.117540576
24	0x3df2f487	0.11863046
25	0x3cff914b	0.03119721
26	0xbe129292	-0.14313725
27	0x3ded55a6	0.11588602
28	0x3d8e0e59	0.0693633
29	0x3e16fa17	0.14743839
30	0xbddea47c	-0.10871217
31	0x3d15c2d8	0.03656277
32	0x3f4c2ac9	0.79752785
33	0x3f149f8d	0.58055955
34	0x3f9e341f	1.2359656
35	0xbf1d69b7	-0.61489433
36	0xbe893489	-0.26797894
37	0xbd527ba9	-0.051387463
38	0xbeb41474	-0.35171854
39	0xbe6a0483	-0.22853284
40	0xbe851b93	-0.259976
41	0xbf7036ea	-0.9383379
42	0x3e152a99	0.14567031
43	0x3f09fbc3	0.5389978
44	0xbdf79723	-0.12089374
45	0x3d26e299	0.040743444
46	0x3d4b117c	0.04957722
47	0x3e57b835	0.21066363
48	0x3f7dc02f	0.99121374
49	0x3e90a7ee	0.2825312
50	0x3f6b9918	0.9203048
51	0x3e3a6c9f	0.18205498
52	0x3de70510	0.112802625
53	0x3ec5a038	0.385988
54	0xbf32fa52	-0.6991321
55	0xbf9626e5	-1.173062
56	0xbec361b7	-0.38160488
57	0x3ed5cc0d	0.4175724
58	0x3ebba928	0.36652493
59	0xbfa041be	-1.2520063
60	0x3f044004	0.5166018
61	0x3f8c4f88	1.0961771
62	0xbfc190d3	-1.5122322
63	0xbf7cb096	-0.9870695
64	0x3f9c6625	1.2218672
65	0x3ed4b60e	0.41545147
66	0x3f053c2d	0.52044946
67	0xbf855027	-1.0415086
68	0xbea5d64c	-0.32390058
69	0xbe554b4d	-0.20829506
70	0xbe962239	-0.29322985
71	0x3de29d2b	0.11065134
72	0x3d1fb64e	0.03899222
73	0xbf826059	-1.0185653
74	0x3eb1a580	0.3469658
75	0x3e50f673	0.20406513
76	0xbc289889	-0.010290273
77	0x3e816d1f	0.25278565
78	0x3d4cca61	0.04999769
79	0x3f8929e5	1.071591
80	0x3f9bbb02	1.2166445
81	0x3de04a77	0.10951703
82	0x3f351e31	0.70749193
83	0x3d03178a	0.03200487
84	0xbd8321b6	-0.06402914
85	0x3e0fad84	0.14031035
86	0xbfa7c852	-1.3108008
87	0xbf828005	-1.0195318
88	0xbe531877	-0.20614801
89	0x3ec05e46	0.37571925
90	0x3f118c3f	0.56854624
91	0xbf5f2020	-0.87158394
92	0x3d1d0fe1	0.03834522
93	0x3f96e7e8	1.1789522
94	0xbf6baf1c	-0.9206407
95	0xbf1a16f3	-0.6019127
96	0x3d642b47	0.055705335
97	0x3e82a0e1	0.25513366
98	0xbd53e98d	-0.051736403
99	0x3e4850c1	0.19562055
100	0x3d87305e	0.06601022
101	0x3e70b8dc	0.23508018
102	0xbd829f67	-0.0637806
103	0x3d4eff99	0.050536726
104	0x3cbf33bd	0.0233401
105	0x3d8b89ec	0.06813416
106	0xbd9b9c36	-0.07598154
107	0xbd25be08	-0.04046443
108	0xbdc0c313	-0.094122075
109	0xbd5a00c7	-0.053223398
110	0xbe4ecec6	-0.20196065
111	0xbdbb2576	-0.091380045
112	0xbe08452c	-0.13307637
113	0x3ccb3d5a	0.024809528
114	0x3e706d62	0.23479226
115	0x3e081e93	0.13292913
116	0x3db89bfc	0.09014127
117	0x3db29b8f	0.08721077
118	0x3cf835c2	0.030299071
119	0xbe4e2e37	-0.20134817
120	0xbe69a4f3	-0.2281683
121	0x3d0b78a0	0.034050584
122	0xbe409274	-0.18805867
123	0x3d25cd22	0.040478833
124	0x3e6453e3	0.22297625
125	0xbe1a4992	-0.15067127
126	0xbe5bc6bf	-0.21462534
127	0xbe7a5d92	-0.24449757
128	0x3dc645ae	0.09681259
129	0x3dd01ac5	0.10161356
130	0xbe3a0906	-0.18167505
131	0xbe219ac1	-0.1578169
132	0x3e399600	0.18123627
133	0xbf063892	-0.5243007
134	0x3e652bd3	0.22379999
135	0x3dfd015a	0.123537734
136	0x3cbdc137	0.023163421
137	0x3d1a2494	0.03763254
138	0x3d9abccc	0.075555414
139	0xbdf1f5b7	-0.118144445
140	0xbd5b8acc	-0.053599164
141	0x3d770797	0.060309973
142	0x3d4e3343	0.050341856
143	0x3e10ae70	0.14129043
144	0xbd839417	-0.0642473
145	0x3d5c4f7e	0.053786747
146	0xbdae69e2	-0.08516289
147	0xbd9786d7	-0.073987655
148	0xbc419101	-0.011814357
149	0xbe1118fc	-0.14169687
150	0xbe58127c	-0.21100801
151	0x3d0d3008	0.034469634
152	0x3e107854	0.14108402
153	0xbe0fac20	-0.14030504
154	0x3daf51e1	0.08560539
155	0x3d8f437f	0.06995296
156	0xbe76bbd3	-0.24095087
157	0xbe3e5709	-0.18587889
158	0x3e11c67b	0.1423587
159	0xbb4a5199	-0.003087139
160	0x3ee9430a	0.4555896
161	0xbe0802d1	-0.13282324
162	0x3d857a7f	0.06517505
163	0xbef79c7a	-0.4836157
164	0x3d90a3b7	0.07062476
165	0xbdef5a1b	-0.11687108
166	0xbca91061	-0.020637693
167	0x3dbec080	0.0931406
168	0xbd8af94e	-0.06785832
169	0xbe4e661e	-0.20156142
170	0x3e1889e8	0.14896357
171	0xbdf415e2	-0.11918236
172	0x3e18086d	0.14846964
173	0x3e12f155	0.14349873
174	0xbdcb80f2	-0.09936704
175	0x3ecf7ae6	0.40523452
176	0x3e9ad7d8	0.302428
177	0xbd5e83df	-0.05432498
178	0x3d68d417	0.05684289
179	0xbd82b45b	-0.06382056
180	0x3d84a5c9	0.064769335
181	0x3e393a5a	0.18088666
182	0xbf041495	-0.51593906
183	0xbe8dfebc	-0.2773341
184	0x3e1543aa	0.14576593
185	0x3dca9cbd	0.09893177
186	0x3ea6d324	0.32582963
187	0xbe94178f	-0.28924224
188	0x3dcb275c	0.099196166
189	0x3dcaf1b1	0.0990938
190	0xbe39ca92	-0.1814368
191	0xbe2713a3	-0.16316085
192	0x3f5fca38	0.87417936
193	0xbd413045	-0.047165174
194	0x3ee1f095	0.44128862
195	0xbf9e9401	-1.2388917
196	0xbd2a2abf	-0.041544672
197	0xbfa0607c	-1.2529445
198	0xbdae35f4	-0.085063845
199	0x3f6bcea2	0.9211217
200	0x3ec6e7c2	0.38848692
201	0xbeb305ec	-0.34965456
202	0x3eeb27dd	0.4592885
203	0x3d134a91	0.035959784
204	0x3f01d380	0.5071335
205	0x3f3fdda9	0.749476
206	0x3e33adf1	0.17546822
207	0x3fa81427	1.313115
208	0x3f12a29e	0.57279384
209	0xbdd68209	-0.10474021
210	0x3e9262e6	0.2859108
211	0xbea1ae96	-0.3157851
212	0xbeac2d00	-0.33628082
213	0xb9cd3564	-0.00039140426
214	0xbfd823a8	-1.6885881
215	0xbf1ef743	-0.6209604
216	0x3e08c9c3	0.13358216
217	0xbdb09aab	-0.086232506
218	0x3f924ec0	1.1430283
219	0xbf09dce5	-0.53852683
220	0xbe9f69aa	-0.31135303
221	0x3f4264a8	0.7593484
222	0xbe985535	-0.29752508
223	0xbebbd14b	-0.36683115
224	0xbee6e8a0	-0.45099354
225	0xbe7a74eb	-0.24458663
226	0xbe9d1b02	-0.30684668
227	0x3e2211d7	0.15827118
228	0x3ec01cd7	0.37522003
229	0xbe6f768c	-0.23385066
230	0x3e08581e	0.13314864
231	0x3e226e1a	0.15862313
232	0x3d99dc8f	0.07512771
233	0x3ef391e2	0.47572237
234	0x3d534345	0.051577825
235	0xbdabae9a	-0.08382912
236	0x3de50ee4	0.11184481
237	0x3d15f1be	0.036607496
238	0x3e1bfd0c	0.15233248
239	0xbe23f9d7	-0.16013275
240	0xbf081876	-0.53162324
241	0xbd8c37ff	-0.06846618
242	0xbee60b6c	-0.4493059
243	0xbe41845f	-0.18898152
244	0xbe42b5f4	-0.19014722
245	0xbd4dda19	-0.050256822
246	0x3eeeff9d	0.46679392
247	0x3f49eb33	0.7887451
248	0x3ca89bf6	0.02058218
249	0x3d1e326b	0.0386223
250	0xbe415256	-0.18879065
251	0x3f229970	0.6351538
252	0xbe850476	-0.25979966
253	0xbf385fc5	-0.7202113
254	0x3f4d4e98	0.8019805
255	0x3ecbadd4	0.39781058

fch.0.0.bias f4 [32]
0	0xbe2c98e6	-0.16855201
1	0x3f05ba46	0.52237356
2	0x3e40c0b1	0.18823506
3	0x3d6d5823	0.05794538
4	0x3d18a215	0.03726395
5	0x3d590c20	0.05299008
6	0x3e6114a2	0.21980527
7	0xbe432790	-0.1905806
8	0x3e74bf05	0.23900993
9	0xbda82987	-0.08211046
10	0x3de7e500	0.11322975
11	0xbc624e67	-0.013812638
12	0x3cdd3db9	0.02700697
13	0x3d3504ed	0.04419415
14	0xbe49d66a	-0.19710699
15	0x3deac46c	0.11463246
16	0x3e97b629	0.29631165
17	0xbdcfc108	-0.1014424
18	0xbc9ef393	-0.019403255
19	0x3dbe00ff	0.09277534
20	0xbdc8558c	-0.09781942
21	0x3d571a40	0.05251527
22	0xbe4dd450	-0.20100522
23	0xbdd5e9a5	-0.10444955
24	0x3e4fac7c	0.20280641
25	0x3e0d6d2b	0.13811176
26	0x3dc979e2	0.098377004
27	0xbdecc978	-0.115618646
28	0x3ccb68aa	0.024830181
29	0x3e4605a6	0.19338092
30	0x3c3d5dd0	0.011558011
31	0xbdf2e6d4	-0.11860433

fch.1.0.weight f4 [32, 32]
0	0x3de556f7	0.11198228
1	0x3ea2eb19	0.3181999
2	0x3df68b0d	0.120382406
3	0xbd487abd	-0.048945177
4	0x3e51e776	0.20498452
5	0x3ee80a76	0.4532048
6	0x3f3087d2	0.68957245
7	0xbe93543b	-0.287752
8	0xbe923764	-0.28557885
9	0x3ec81506	0.3907854
10	0x3f194767	0.59874576
11	0x3d1f2048	0.038849145
12	0x3eb701a5	0.35743442
13	0xbf01a848	-0.506474
14	0x3e4da568	0.20082629
15	0xbe54dd31	-0.20787503
16	0x3d6d5e64	0.057951346
17	0xbed55311	-0.41664937
18	0x3ea7ff85	0.32812133
19	0xbf0241b9	-0.50881535
20	0xbeb9315e	-0.36170477
21	0xbe9f20a3	-0.31079587
22	0x3e93b61b	0.28849873
23	0x3d4a40bc	0.04937814
24	0x3c386822	0.011255296
25	0xbe653a19	-0.22385444
26	0x3eb20560	0.34769726
27	0xbe10a701	-0.14126207
28	0x3e8ae856	0.27130383
29	0x3f0e4639	0.555759
30	0x3d3ed501	0.046589855
31	0xbc8be853	-0.017078554
32	0x3e871ead	0.2639059
33	0xbe75d1af	-0.24005769
34	0x3c05a8e7	0.008157945
35	0x3e2b3a50	0.16721463
36	0xbe87f873	-0.2655674
37	0xbe19cb9e	-0.1501908
38	0xbdbd30e1	-0.092378385
39	0xbddfc866	-0.10926895
40	0x3ec543aa	0.38528186
41	0x3afe04d5	0.0019380102
42	0xbe50118b	-0.20319192
43	0x3e198152	0.14990738
44	0x3c29da09	0.010366925
45	0x3d6ca959	0.05777869
46	0xbc5bdbb4	-0.0134190805
47	0xbd35a09d	-0.044342626
48	0x3e7cd855	0.24691899
49	0x3e98fcb9	0.29880312
50	0xbc749d35	-0.014930059
51	0x3d7b7140	0.0613873
52	0x3e38368c	0.17989558
53	0x3e88d6c3	0.2672635
54	0xbe85e582	-0.26151663
55	0x3deb14e9	0.11478598
56	0x3ec46141	0.3835545
57	0x3e8d038a	0.27541763
58	0xbeb1b222	-0.34706217
59	0x3e6462e0	0.22303343
60	0xbf18512d	-0.59498864
61	0xbb999c63	-0.004687832
62	0xbd1e2e61	-0.03861845
63	0xbf415105	-0.7551425
64	0xbdda2a98	-0.10652655
65	0xbca258e7	-0.019817783
66	0xbe383aa1	-0.17991115
67	0x3e491a37	0.19638906
68	0x3da0ed3b	0.07857748
69	0xbe519b70	-0.20469451
70	0xbf153975	-0.582908
71	0x3dcddf2a	0.10052331
72	0x3e2c56a5	0.16829927
73	0xbdecc867	-0.11561661
74	0xbd501fcd	-0.050811578
75	0x3db1014a	0.08642824
76	0xbe34506b	-0.17608802
77	0x3e0f30c1	0.13983442
78	0xbe611f62	-0.21984628
79	0x3e002bac	0.1251666
80	0x3d65bda9	0.056089077
81	0x3e0df535	0.1386307
82	0xbe43f907	-0.19137965
83	0x3e8a8053	0.2705103
84	0x3d8b60a2	0.068055406
85	0x3e78c9a6	0.24295673
86	0xbdec4780	-0.11537075
87	0xbddcedee	-0.10787569
88	0x3dfdf0c8	0.12399441
89	0xbe2cec2a	-0.16886964
90	0xbe3d4d19	-0.18486442
91	0x3bfa2b19	0.007634532
92	0xbe30fe31	-0.17284466
93	0xbdae3426	-0.0850604
94	0xbe0bbcf2	-0.13646296
95	0xbe9e3079	-0.30896357
96	0xbde189e8	-0.11012632
97	0xbce9e234	-0.028550245
98	0xbf0c9ed5	-0.5492986
99	0xbd826cf7	-0.0636844
100	0x3dc0fcad	0.09423194
101	0x3ddfed70	0.109339595
102	0xbd8db190	-0.06918633
103	0x3e45cdde	0.19316813
104	0xbd8c52ef	-0.06851756
105	0xbd7659a3	-0.060144078
106	0xbd93ba07	-0.07213216
107	0x3d2bea4a	0.041971482
108	0xbece5ad2	-0.40303665
109	0xbd3b194b	-0.045678418
110	0x3d64ab7e	0.05582761
111	0x3e3a33e1	0.18183853
112	0xbe618f4b	-0.22027318
113	0xbe47c012	-0.19506863
114	0xbe851eaf	-0.25999972
115	0xbd10bd96	-0.035337053
116	0xba5827fb	-0.00082457036
117	0x3e02cc97	0.12773357
118	0xbd63a7f8	-0.05558011
119	0xbec28d75	-0.37998548
120	0xbe3cefe0	-0.1845088
121	0xbe468309	-0.19385923
122	0xbd81d977	-0.06340306
123	0x3e2885c1	0.16457273
124	0xbb948187	-0.0045320424
125	0xbe39b5ad	-0.1813571
126	0x3e3e7474	0.18599111
127	0x3b81cff5	0.003961558
128	0xbdaaf9ec	-0.0834845
129	0xbe567e83	-0.20946698
130	0xbec7e6a9	-0.39043167
131	0x3db4bf30	0.088255286
132	0xbe55ad75	-0.2086695
133	0xbd98bf5a	-0.074583724
134	0x3d6bf19d	0.057603467
135	0xbd907639	-0.07053799
136	0x3d923327	0.07138663
137	0xbba95e9a	-0.005168748
138	0x3e36429a	0.17798844
139	0x3d62b404	0.055347458
140	0xbe06f2e4	-0.13178593
141	0xbd4cb56c	-0.049977705
142	0x3c6cfa7a	0.014464015
143	0xbcf50e0e	-0.029913928
144	0x3e1ce2b7	0.1532086
145	0x3ae58596	0.0017511125
146	0xbcfe16cd	-0.031016732
147	0x3dd0a172	0.10187043
148	0xbe0a91d7	-0.13532196
149	0xbe08c7dd	-0.13357492
150	0xbccb4fc3	-0.024818307
151	0xbda65dc2	-0.08123352
152	0xbe3171aa	-0.17328516
153	0x3d47a598	0.048741907
154	0x3dca150f	0.09867298
155	0xbd6126f1	-0.054968778
156	0x3d96ea40	0.073688984
157	0x3de387d0	0.111098886
158	0xbe19ed9a	-0.15032044
159	0x3de42ca3	0.11141326
160	0xbc9a01e7	-0.018799735
161	0x3ec0b97b	0.3764151
162	0x3f4bfdfe	0.79684436
163	0xbe6e3117	-0.23260914
164	0x3f0857a0	0.53258705
165	0x3eab451c	0.33451164
166	0xbf60f609	-0.8787542
167	0xbe4d2bbd	-0.20036216
168	0xbe29ca85	-0.16581161
169	0x3d9c68a3	0.07637145
170	0x3ebdc0c8	0.37061143
171	0xbec099d0	-0.3761735
172	0x3cca3c4b	0.024686953
173	0xbcb85686	-0.022502195
174	0x3e1ced56	0.15324911
175	0xbe02c9cd	-0.12772293
176	0xbf823813	-1.0173362
177	0x3ce33ab4	0.027737953
178	0x3f06b0b8	0.526134
179	0xbf49213c	-0.78566337
180	0xbee8149e	-0.4532823
181	0xbef7d6ae	-0.48405975
182	0x3f14a75d	0.58067876
183	0x3df6a038	0.12042278
184	0xbebb3f07	-0.36571524
185	0xbe6751c5	-0.22589786
186	0x3eca2ad9	0.39485815
187	0xbe03eec4	-0.1288405
188	0xbed1ff0b	-0.41014895
189	0x3f2f50fb	0.6848294
190	0xbe45e318	-0.1932491
191	0xbfcdfbfa	-1.6092522
192	0xbe1d3e22	-0.15355733
193	0xbdc69667	-0.09696656
194	0x3e541338	0.20710456
195	0xbd824e31	-0.0636257
196	0x3e9c297c	0.305004
197	0xbda8bcd7	-0.08239143
198	0xbeaef740	-0.34173012
199	0x3d339098	0.043839067
200	0x3c2cee63	0.010554883
201	0x3e599f34	0.21252137
202	0x3eab6261	0.33473495
203	0xbe88d611	-0.2672582
204	0x3cdd775d	0.027034456
205	0xbe736ca6	-0.23771915
206	0x3e386631	0.18007733
207	0xbbfb8a6a	-0.0076764124
208	0xbe9de3b4	-0.30837786
209	0xbb868cb9	-0.004106131
210	0x3d9fa75d	0.07795594
211	0x3ccb3e8f	0.024810104
212	0xbe50c1be	-0.20386407
213	0xbe6220be	-0.22082803
214	0x3df9170b	0.12162598
215	0xbe3e53af	-0.1858661
216	0xbd13c9b9	-0.03608105
217	0xbe1c5bc1	-0.15269376
218	0x3e64a8c0	0.22329998
219	0xbe86b35f	-0.26308724
220	0xbe103ef1	-0.1408651
221	0xbaece225	-0.0018072767
222	0x3c3ea4ba	0.011635954
223	0xbe80c732	-0.25151974
224	0xbde0d52d	-0.1097816
225	0x3db7393e	0.08946465
226	0x3d0dc294	0.034609392
227	0x3d068d50	0.03284961
228	0x3e670ec2	0.22564223
229	0x3dd9d442	0.10636188
230	0x3de053e3	0.109535
231	0x3dc01c63	0.09380414
232	0xbe481c25	-0.19541986
233	0x3dc7a746	0.09748702
234	0x3e7fc5a7	0.24977742
235	0xbdca0f73	-0.09866228
236	0xbe441948	-0.19150269
237	0xbe173ff5	-0.14770491
238	0x3e18d3f0	0.14924598
239	0x3dc604f1	0.09668911
240	0xbe9abbc6	-0.30221385
241	0xbc4f193d	-0.012640295
242	0xbd3d6d90	-0.046247065
243	0x3cf079a5	0.02935488
244	0xbea5c276	-0.32374924
245	0xbd873453	-0.06601777
246	0x3d814442	0.06311847
247	0xbe108889	-0.14114584
248	0xbdd173a9	-0.102271385
249	0xbeb35908	-0.35028863
250	0x3e6319ce	0.22177812
251	0xbeb3bc3e	-0.35104555
252	0x3f031471	0.51203066
253	0x3d827935	0.06370775
254	0xbcfda0f3	-0.030960536
255	0x3f789b2f	0.9711179

fch.1.0.bias f4 [32]
0	0x3e0dc084	0.1384297
1	0xbdc46ac4	-0.095906764
2	0xbe4f38a8	-0.20236456
3	0x3e300e25	0.17192896
4	0x3e059e97	0.13048778
5	0xbd8d6d41	-0.06905604
6	0xbe4d6b8e	-0.2006056
7	0xbc0fd1b1	-0.008778022
8	0x3e25ad7d	0.16179462
9	0xbe258981	-0.16165735
10	0xbd88c24f	-0.066776864
11	0xbcb55f18	-0.02214007
12	0x3e341854	0.17587405
13	0xbdb98614	-0.090587765
14	0x3cbc79fd	0.023007387
15	0xbe0d82eb	-0.13819472
16	0xbd86e254	-0.065861374
17	0xbda11259	-0.07864828
18	0xbdacd74c	-0.08439502
19	0x3d6bdc35	0.057583053
20	0xbd24f197	-0.04026946
21	0xbdfefea3	-0.12450912
22	0xbe6b92de	-0.23005244
23	0xbe7715ec	-0.24129456
24	0x3cf01e58	0.029311344
25	0x3c6ecc03	0.014575007
26	0xbe3ca9f6	-0.1842421
27	0xbde050d5	-0.109529175
28	0x395a2656	0.00020804381
29	0x3df787a0	0.12086415
30	0x3deb5158	0.114901245
31	0xbe73afd4	-0.23797542

fce.weight f4 [1, 32]
0	0x3e9c1660	0.3048582
1	0xbeaa04a8	-0.33206677
2	0xbd9d7b99	-0.0768959
3	0xbe48290c	-0.19546908
4	0xbd588c23	-0.05286802
5	0xbf4d112a	-0.80104315
6	0xbd76e62f	-0.060278114
7	0x3e3c4d0b	0.18388765
8	0xbe9a6022	-0.3015147
9	0x3f88fa56	1.0701396
10	0xbe856c13	-0.26059017
11	0xbe2f7bbf	-0.17137049
12	0x3dccbe1d	0.09997199
13	0xbe68aa85	-0.22721298
14	0xbe22cb0c	-0.15897769
15	0x3e4d6499	0.20057906
16	0x3e22c742	0.15896323
17	0x3e24fa5b	0.16111128
18	0x3e5d1940	0.21591663
19	0xbeb0e6c7	-0.3455107
20	0x3f84bca1	1.0370065
21	0x3d07d46f	0.033161577
22	0xbe7448f3	-0.23855953
23	0xbeb93ad5	-0.36177698
24	0xbe311ca4	-0.17296082
25	0xbbe7c24c	-0.0070727225
26	0x3ddac867	0.10682755
27	0x3f046888	0.51722
28	0x3e0981ee	0.1342847
29	0x3e23f4aa	0.160113
30	0x3e8b65e8	0.27226186
31	0x3e8c97a1	0.27459434
